Predict/RobustScaler_and_net/quadrupole/Diagonal_RobustScaler_epoch_100_batchsize_32_L1Loss()_lr_0.0001_weightdecay_0.0001.pt (torch, 16663 bytes, 5 tensors)

weight f4 [54, 6]
00000000: 439c 01a9 9fbc 9bae 2b8d afab 4aad 3500
00000010: fadc b281 f9bb 1101 a039 9d3d a7ce 03be
00000020: ab62 813a 281c 4b3c 3045 da3b 9027 b03a
00000030: 8631 f63c a0f0 963c 1acb 483c 308e 00be
00000040: fa69 37be 4b4c 13be 2bef 2fbf 2258 8f3c
00000050: a28d 893c 8f11 e53c 56eb 0fba 0b5c 63b9
00000060: 33c9 a53d c043 03bd c1de a0bc 0f49 ddb9
00000070: 2e3e 10bd aee6 933d 48c7 16bd 378c 053d
00000080: 695a 87bd cca4 25bc 7ba0 06bb 79f1 703c
00000090: 6700 5e80 41fd 8280 f8af 0981 d86b db80
000000a0: ca38 9d80 40af 2680 2775 b03d fa92 2bbf
000000b0: f546 cf3c 3708 9dba 4851 2a3c 0997 ccba
000000c0: 5c4d 5cbc 576d 2a3d c7c9 0f3c 8a53 303d
000000d0: 6a0e c43c a912 4e3c 9b31 883d 64e8 12be
000000e0: 8cb2 c0bb df2f 1e3c 0cb2 a7bb 6124 a63a
000000f0: d627 7a3d 30d5 a3bd 6989 f53b bfcc 77bb
00000100: 78a3 1cba 744a a6bc 9048 f1bc 4552 413d
00000110: 3bd6 1d3e e345 08bb 5d27 32bd 606a c8bd
00000120: 6802 0c00 1876 1580 8cd1 df80 116f a780
00000130: a0f1 bc81 48d5 1580 2658 dc3b e1da 6d3b
00000140: 7a38 4c3b 5d6c cb3d 005f 98bd 0be8 a8bd
00000150: c43a 9780 a4eb 0b00 45dc 2480 b6c7 6a81
00000160: 4bcc fa80 70f7 4800 a62b 6239 e105 d1ba
00000170: 488c cdba 00cb cc80 0166 de80 2e21 1801
00000180: 8211 4fb8 42ce 89b9 71b1 b7b9 e1bd b600
00000190: 3437 0801 3310 8900 acc7 edbc 814b babb
000001a0: b023 83bb c149 1f3e b228 0e3e 6f18 e33d
000001b0: 40ef 6f3e f448 893b 1d32 563b ab4b 23be
000001c0: abe8 6bbd 5331 71be 4921 ed3d 51c5 8fbc
000001d0: 142c 54bc 14cf a53b 8a8d 41bd e5d2 f83c
000001e0: 7299 833c 9a43 7fbd 264e a33c cb85 30bd
000001f0: 382f dbbc 1035 6cbc 32cf 2f3e 29b9 363e
00000200: 4a32 c5bd 3ba8 103d e327 823d 3607 573d
00000210: d562 7f3d d1ac d83c 297b 14be e35a 433d
00000220: 6c41 523d e32f dd3c 2ca8 7281 f3d2 b700
00000230: 63d1 1381 940b d400 78e3 1b80 dc19 4180
00000240: c8cd c23d 5e5f b539 5746 203a 2576 0cbe
00000250: 49f0 c03d fcc2 c83d 57d1 f93d 1cb2 2a3e
00000260: 0455 b23d 7cbd 003e 2a9b 303d 3ef0 8abd
00000270: 0004 133e 5895 5abc e4eb 3bbc 1bd5 f13c
00000280: f149 e4bc f8ed a23c 08d2 5c3d 7f72 bb3c
00000290: e4b3 61bf 00c9 adba c059 57ba d077 5e3e
000002a0: e9b3 a83d 6e7e a8be d0d4 f73c e840 783c
000002b0: 99c3 bc3c 5fd3 cf3c b13d 4f3d f80d 34be
000002c0: cff0 e73c 461d 843b 747a 0c3c e08d da3c
000002d0: c1f6 89a6 3d6f f6a6 f2d2 68ad 2e30 2180
000002e0: 48f8 9d00 3c96 7681 d411 0c00 a087 6a80
000002f0: 643e cc80 66ac 8301 0ce4 9681 284a 6481
00000300: 0fee 23b3 1842 3cb3 8336 7fb4 5e06 5b81
00000310: 1845 6c00 fa73 1381 9620 c03d 3da1 efbe
00000320: ec1a c03c b510 e33a c954 6dbc 201f bf39
00000330: 92d6 6081 06df 0981 7a90 bc80 e018 0b00
00000340: 0801 ff80 9898 8581 a15f f33d fc98 5ebd
00000350: 548a 0a3e d88a 6a3d 57e7 bd3c b092 8fbd
00000360: 073a 0481 e041 a580 2987 8080 39c6 5080
00000370: 409c 8c01 d85f 1281 0b9a b5be 3e06 ac3d
00000380: ef15 503d a73c 57bc ad24 b53c 7558 293d
00000390: 7a2d 10bd 43e9 81bc b153 d33d 9f23 ca3c
000003a0: af5f f73c cccc 513c 5b17 4100 84ed c480
000003b0: 926a ff80 0afd f700 6239 b681 38b4 2880
000003c0: 6eb0 d9b5 4ee4 76b9 2423 0cb9 387b a580
000003d0: 48f9 d380 2822 ed00 3209 d43d 211c f1bd
000003e0: e4df 13be c7ff 00ba 39c8 0cbb 9d80 8bbc
000003f0: 070f 6bbc 9d25 1dbc e57a fb3d 5962 11be
-2.877929e-14 -7.08209e-11 -1.247368e-12 4.929446e-39 -6.570396e-38 2.6767158e-38 0.07677007 -0.128718
0.0009871324 0.01239685 0.00666108 0.0013439525 0.030052911 0.018425286 0.012255454 -0.1255424
-0.1791152 -0.14384572 -0.68724316 0.01749808 0.016791169 0.027962474 -0.0005490085 -0.00021682696
0.08095016 -0.032047033 -0.019637467 -0.00042206838 -0.03521555 0.07221733 -0.036811143 0.032604422
-0.06609041 -0.010110091 -0.002054243 0.014706009 -8.632681e-39 -1.2029465e-38 -2.5289177e-38 -2.0150661e-38
-1.4438545e-38 -3.552617e-39 0.08616095 -0.67021143 0.02530239 -0.0011980598 0.0103953555 -0.0015608977
-0.013446178 0.04160818 0.008776135 0.04304842 0.023932654 0.012577691 0.066500865 -0.14346462
-0.0058806594 0.009654968 -0.0051176604 0.0012675637 0.061073147 -0.07999647 0.007493187 -0.0037811247
-0.00059752865 -0.020299174 -0.029453546 0.0471976 0.15413754 -0.002079361 -0.04349457 -0.097859144
1.102889e-39 -1.97091e-39 -2.0554487e-38 -1.5376371e-38 -6.940701e-38 -2.005056e-39 0.0067243753 0.0036293792
0.0031161592 0.09932778 -0.07439995 -0.08247384 -1.3888241e-38 1.094722e-39 -3.385096e-39 -4.3122298e-38
-2.303216e-38 6.70092e-39 0.000215693 -0.0015947187 -0.0015682066 -1.8807264e-38 -2.0424072e-38 2.7941796e-38
-4.936895e-05 -0.0002628435 -0.00035036684 1.6782176e-38 2.501886e-38 1.2587274e-38 -0.029025875 -0.0056852703
-0.004002057 0.15555479 0.13882712 0.11088645 0.2343111 0.004189605 0.0032683678 -0.15946834
-0.057594936 -0.23553972 0.11578614 -0.017550142 -0.012949962 0.005060086 -0.047254123 0.030374
0.01606438 -0.06232033 0.019934725 -0.043096345 -0.026755914 -0.014416948 0.17168882 0.1784407
-0.096287325 0.035316687 0.06355264 0.05249711 0.062350113 0.026449593 -0.14500107 0.0476941
0.051331922 0.027000373 -4.4569038e-38 1.688157e-38 -2.7149863e-38 1.9473279e-38 -2.561159e-39 -5.978584e-39
0.09511906 0.00034594064 0.0006113997 -0.13716944 0.09420831 0.09802815 0.121981315 0.16669506
0.08707622 0.12572283 0.043116726 -0.06784104 0.14356995 -0.01334127 -0.011469815 0.029520562
-0.02786729 0.019888863 0.05391124 0.022881744 -0.88165116 -0.0013258755 -0.0008214973 0.21725392
0.0823744 -0.32908958 0.030252844 0.015152194 0.023042487 0.025369344 0.050595943 -0.17583454
0.028313069 0.00403181 0.008574117 0.02667898 -9.573167e-16 -1.709983e-15 -1.32345124e-11 -3.047855e-39
1.450724e-38 -4.5290852e-38 1.108421e-39 -9.783216e-39 -1.8756823e-38 4.836918e-38 -5.542853e-38 -4.193019e-38
-3.8167908e-08 -4.3832273e-08 -2.3768557e-07 -4.0228516e-38 9.94302e-39 -2.7082845e-38 0.09381215 -0.46802703
0.023450337 0.0017323705 -0.014485546 0.0003645355 -4.129625e-38 -2.5322937e-38 -1.7316902e-38 1.019114e-39
-2.3418421e-38 -4.9075445e-38 0.11883474 -0.054345116 0.1352933 0.057261318 0.0231816 -0.070104
-2.4286204e-38 -1.5176488e-38 -1.180343e-38 -7.417949e-39 5.1652086e-38 -2.688473e-38 -0.35469088 0.08399628
0.050802168 -0.013137019 0.022112215 0.041344125 -0.03519962 -0.015858298 0.10318697 0.024675189
0.030196993 0.012805175 5.977686e-39 -1.8084962e-38 -2.3456282e-38 2.2774141e-38 -6.693858e-38 -3.73807e-39
-1.6219108e-06 -0.00023545438 -0.00013364531 -1.519706e-38 -1.9466715e-38 2.1777266e-38 0.10353316 -0.11772943
-0.14440876 -0.00049209263 -0.0021481647 -0.017029101 -0.0143468445 -0.009591487 0.122793 -0.14197673

bias f4 [54]
00000000: d6a0 7500 113d b03d 53c1 68bf 2cae 343d
00000010: 8541 a3be 5543 3ebc c533 9681 de17 f0bd
00000020: 6f04 173e 39da 113d 8452 c13d 0a59 fabe
00000030: 680d a680 ab39 17bf 9b07 8e81 ef8e 04b2
00000040: 8569 9600 a342 343e 2724 5cbf 9981 25be
00000050: c2c5 313e 8492 b13e 92d5 9c3e 4662 b481
00000060: e520 60be c647 e0be 5149 063c 9419 30bd
00000070: 0cdf 973d 990e 173e 213d ea80 6c38 1f80
00000080: 7c59 ac00 2c88 b6bd 3ab7 1881 25ea 90be
00000090: ee09 a981 74f0 1e3f a39c ce3e 5328 8f81
000000a0: eb62 5f00 bf23 973b a6ef b03d 6bd6 09be
000000b0: a9c0 23bf 943e ca3e a033 8ebc ef2a 113f
000000c0: e7b9 383e 3ef1 be3e 8dc8 423d 30fd 3180
000000d0: 1fbb b4bd fd7e 51be
1.080245e-38 0.086053975 -0.9091999 0.044111416 -0.31885925 -0.011612733 -5.5175583e-38 -0.11723302
0.14747785 0.035608504 0.09439567 -0.48896056 -1.5249502e-38 -0.5907237 -5.2173475e-38 -7.715911e-09
1.3813178e-38 0.17603545 -0.85992664 -0.16162719 0.17360595 0.34682095 0.3063169 -6.626257e-38
-0.21887548 -0.4380476 0.008196191 -0.042993143 0.0741559 0.14751662 -2.1511435e-38 -2.867141e-39
1.5827806e-38 -0.089126915 -2.804945e-38 -0.28303638 -6.2095044e-38 0.6208565 0.4035388 -5.2587766e-38
8.759857e-39 0.0046124156 0.08639459 -0.134607 -0.6396585 0.39500868 -0.017358601 0.56706136
0.18039666 0.37293428 0.04755454 -4.590766e-39 -0.08824753 -0.20458598

weight f4 [54, 54]
00000000: 5286 2b01 b25d 1f3d 5f99 c9bd d8a0 ba3d
00000010: 4fe0 6b3d 3640 023d b6d4 8f01 8ee8 643c
00000020: ece5 763d 84c4 a23c 017f 443d 2932 0d3d
00000030: fa60 8f00 7a6d 25bb 6684 0c01 574c 53b8
00000040: 0108 769f 6df5 4dbd bfd8 71be 7205 b73d
00000050: 15b3 473c 5052 9e3c 8318 a9bc b874 2d00
00000060: b13d 08be c630 33bc 8c0f 953e eb8d 1cbc
00000070: 848b 843d b0b5 e13c d4b5 bf80 c8a9 a300
00000080: b9a1 1a81 9c7d 2b3d f6d0 9200 96ad 19be
00000090: daa2 1b01 e043 143e 55a8 f03d a208 1f81
000000a0: e210 f6b4 988b 083d c773 79bb 80c3 37bd
000000b0: 54f4 13be 9346 aa3b c734 883c 91e2 c33c
000000c0: 4442 d73d 50ab 433c 63e7 d5bb 9cd9 5301
000000d0: 9fd6 063e 36fe 7d3d 2fba 5e00 2cd6 cf3a
000000e0: 66ff f83c 1193 bdbc 6dc6 10bd 1edc 0d3c
000000f0: c0b1 0101 faf9 b4bc 33ac 8cbd 0a6c e9bb
00000100: 3625 83bc 81e7 4b3d aa4c 9401 558d b7bc
00000110: 605e 5881 3cf8 f636 d3df 531e 853f 033c
00000120: 209f bb3d 7fe2 71bc 27d1 a2bc 5542 e13d
00000130: f0b8 2b3c 78c3 7980 d0f8 35bd 8ca8 f13d
00000140: d8f3 583d 8ef3 cdbc 7eec 563c eed6 08bb
00000150: ee4e d580 1866 0600 ea4e 0201 f9aa c73b
00000160: 8be2 5b01 905a b43b 5f32 b701 197e 253d
00000170: efd7 253d a04d bc00 bc2c 5736 adcf e4bc
00000180: fc20 96bd 3ec1 f5bc 0521 403d 6167 b9bc
00000190: d256 a5ba f1b8 c93d 892f a3bc fb3f ce3c
000001a0: 0972 f13a c750 8301 50d3 433a b998 be3d
000001b0: 14db a900 d178 4f3c 50be 64bd 3017 b03d
000001c0: 68dc aa3d c15d 19bc 2c73 7581 3a9c f1bb
000001d0: 962a b2ba 525b 323c c9b7 ca3c 3c42 cebd
000001e0: 809a 9601 196a a8bd dc71 8f01 9587 9db9
000001f0: 2251 2bab 90c2 33bd 2f2b 79be fd0c f83d
00000200: 7a13 9d3c 443e 753d bb14 073c c0dd fe00
00000210: aabe a0bd d7e5 9bbd eec4 9b3d 2de4 c33d
00000220: f938 c5bd b77c 8bbc f8cb da80 ec9b aa01
00000230: 588a e580 9a56 26bd b541 5e01 330b 48bd
00000240: d8af 5e00 487c 053e 3740 023e 90c6 2401
00000250: 8a05 33b6 8cb8 d3bc cc2b e93d 7b01 023b
00000260: d605 b13b 94c3 ff3c a07e 98bc 0efa 6d3d
00000270: 0a58 8b3d b29a f83d eb8b a6bb 2f8e 1101
00000280: fe7e 98bd a42e 513e 70de 8900 195a f580
00000290: 7805 c300 b618 1c80 25f7 4300 022e 6800
000002a0: 80d4 6481 e36f 4d01 8b4c ee00 368b 1d00
000002b0: 8876 9581 83d0 e09a f19e 3e00 62b8 0781
000002c0: 08b9 9381 4a3d 8e81 7808 6201 5e87 9f81
000002d0: 8574 8c9a 3e88 d600 6ecd 5b01 1414 d2a5
000002e0: 89f4 8500 bc5f b001 854b d800 b810 a1ac
000002f0: f5fd f000 ea70 a481 b814 2b01 1f6e 4a00
00000300: 004d 1400 5c83 0e01 5070 1801 9f57 9381
00000310: ca17 8a81 b7da a39a 00ae ae01 47fe 7600
00000320: 4ad7 f900 e06f 6900 00ed b381 a27a 9f81
00000330: a633 2302 9e6e b900 bd4d 8cab 2e3a 1c80
00000340: 6347 d500 4a6c f500 dfd3 9280 95bd 7581
00000350: 7c9f 6f00 40c6 9f01 332e 3500 2095 a400
00000360: 8465 b480 2950 153c 895d e03c 8220 cdbc
00000370: 3670 9c81 0bc4 a3ba afd8 6800 31ce a5bb
00000380: f5e6 d63c 6a79 8c3b 088c 0dbc a696 683c
00000390: 09fc 0c81 c906 71ba cebe ae01 6fc7 da03
000003a0: 0cca 8581 dab8 d93c decb 9dba 5e16 f43a
000003b0: 9407 3cbd ead6 553c 9b57 ebbb 9c48 4281
000003c0: c926 59bd 6fbc e5bc cf23 46bd 86a2 5abb
000003d0: 6eb5 233b a3bb dcbb 5432 8781 a8db b780
000003e0: 0108 9c80 e844 95bb 9844 3c01 cdb4 e8bc
000003f0: 516f 9200 9510 6f3d 4d95 c53c bcfd 0801
3.150411e-38 0.038907714 -0.09843706 0.0911271 0.057586964 0.031799518 5.283513e-38 0.013971461
0.060277864 0.019869097 0.047972683 0.034471665 1.3167265e-38 -0.0025242255 2.580893e-38 -5.0377417e-05
-5.2099147e-20 -0.050282884 -0.23617838 0.089365855 0.012188693 0.019326359 -0.02064157 4.174468e-39
-0.13304783 -0.010936921 0.29113424 -0.00955532 0.06471923 0.027552456 -1.7605807e-38 1.5030092e-38
-2.8401363e-38 0.041867837 1.3482943e-38 -0.15007624 2.8585844e-38 0.14479017 0.11750857 -2.9209882e-38
-4.5833355e-07 0.033336252 -0.0038063393 -0.044864178 -0.14448673 0.0051964014 0.016626729 0.023911746
0.10510686 0.0119427 -0.0065278276 3.8910706e-38 0.13167809 0.062010013 8.699327e-39 0.0015856675
0.030395221 -0.023141416 -0.035345484 0.008658437 2.3821087e-38 -0.022091854 -0.06868782 -0.007123475
-0.016008954 0.049781326 5.447662e-38 -0.02240626 -3.9740645e-38 7.3602696e-06 1.1216533e-20 0.00801075
0.0916121 -0.0147634735 -0.019875122 0.1099898 0.010481104 -1.1182216e-38 -0.04442674 0.11799726
0.052966923 -0.02514055 0.013117908 -0.0020880061 -1.9589275e-38 5.87637e-40 2.3933847e-38 0.0060933796
4.0386484e-38 0.00550396 6.729586e-38 0.04040346 0.040489133 1.729292e-38 3.2063535e-06 -0.027931059
-0.0733051 -0.029999372 0.04690649 -0.022632303 -0.0012614375 0.09849728 -0.019920127 0.025176993
0.0018420826 4.823771e-38 0.00074701477 0.09306473 1.5598789e-38 0.012663082 -0.05584556 0.08598173
0.083428204 -0.009360732 -4.5082025e-38 -0.00737336 -0.0013593014 0.01088603 0.024745839 -0.10071227
5.5322994e-38 -0.082233615 5.2693284e-38 -0.0003004639 -6.0864e-13 -0.04388672 -0.2433288 0.12111852
0.019174326 0.059873834 0.008244689 2.3405765e-38 -0.07848866 -0.07612198 0.07605921 0.095650055
-0.09630007 -0.017027242 -2.0093308e-38 6.2671874e-38 -2.1079957e-38 -0.040609933 4.0822103e-38 -0.048838805
8.695617e-39 0.13035691 0.12719809 3.0264504e-38 -2.6676303e-06 -0.025844835 0.11385307 0.0019837308
0.005402307 0.031221189 -0.018615067 0.0580998 0.068039015 0.12138881 -0.0050825975 2.6734306e-38
-0.07446097 0.20427948 1.2661259e-38 -2.2532018e-38 1.7909884e-38 -2.580259e-39 6.241637e-39 9.567396e-39
-4.2029448e-38 3.7732828e-38 2.1884307e-38 2.713169e-39 -5.490404e-38 -9.29811e-23 5.750818e-39 -2.4927872e-38
-5.426478e-38 -5.225051e-38 4.151572e-38 -5.860162e-38 -5.809089e-23 1.970167e-38 4.0371336e-38 -3.6442798e-16
1.2301844e-38 6.478956e-38 1.9863558e-38 -4.5777514e-12 2.2131622e-38 -6.040611e-38 3.1422605e-38 6.835331e-39
1.864332e-39 2.6175527e-38 2.799857e-38 -5.4125e-38 -5.072733e-38 -6.776857e-23 6.4167183e-38 1.0927806e-38
2.294427e-38 9.68286e-39 -6.6094294e-38 -5.8583345e-38 1.1990171e-37 1.7029249e-38 -9.969175e-13 -2.592265e-39
1.958657e-38 2.2538543e-38 -1.3483987e-38 -4.5135412e-38 1.0250952e-38 5.869185e-38 4.883854e-39 1.5114517e-38
-1.6566806e-38 0.00911335 0.027388351 -0.025039915 -5.7466364e-38 -0.0012494338 9.628623e-39 -0.0050599803
0.026233176 0.0042869346 -0.008639343 0.014196074 -2.5894765e-38 -0.00091944315 6.4191297e-38 1.2858676e-36
-4.9146407e-38 0.026577402 -0.0012038907 0.0018622389 -0.045905665 0.013051728 -0.0071820742 -3.5684267e-38
-0.053015504 -0.028043954 -0.048373993 -0.0033361032 0.0024979967 -0.006736235 -4.9663385e-38 -1.6884694e-38
-1.4329209e-38 -0.0045553334 3.457936e-38 -0.028406525 1.3447915e-38 0.058365423 0.024119044 2.51613e-38

bias f4 [54]
00000000: 3ea1 a43e 421d 2abe e253 173f 045a bb00
00000010: 5ccb 0c3d 94b4 4980 1763 8600 e7e9 f900
00000020: d379 c53e 3e0b 9dbd de26 103e 7105 ae3e
00000030: c428 a5ba b103 e2a5 7096 c400 1ce9 a8b1
00000040: d9c8 0b3f d475 b732 d453 ac3e 7191 063e
00000050: bc70 c7be 4fde cebe 78ac 9fbe f73e db3d
00000060: 109d 5501 3cc2 2a3e d385 0abe efa0 c53c
00000070: d5fa 8f39 d587 f0b7 a5c8 45be 7117 93be
00000080: 6244 a6be 6497 e0b9 33cb 1c3e 4b98 45bf
00000090: 2ebe b381 063f 83a4 b239 3801 cc58 0501
000000a0: b5ba bb00 cd3f 41bf f3a9 e7b8 957c 003f
000000b0: 3895 1f3f 4122 04b8 62c2 f43e 2925 643e
000000c0: 2aab 1aba 42fe 51b9 efa2 6cb9 8c85 b63e
000000d0: 1854 1c3e f05a 8a01
0.32154268 -0.16612723 0.5911237 1.720553e-38 0.034373626 -6.76877e-39 1.2341503e-38 2.2950947e-38
0.38569507 -0.0766816 0.14077327 0.33988526 -0.001260065 -3.9207252e-16 1.8053724e-38 -4.915945e-09
0.54603344 2.1357586e-08 0.33657706 0.13141419 -0.38953197 -0.40403983 -0.3118627 0.10705369
3.9234608e-38 0.16675657 -0.13527612 0.02412459 0.0002746197 -2.8673481e-05 -0.19314821 -0.28728822
-0.32474047 -0.00042837404 0.1531189 -0.77185506 -6.602711e-38 -5.691896e-17 3.3836857e-38 2.449195e-38
1.7240216e-38 -0.7548798 -0.00011046594 0.501901 0.62337065 -3.1503154e-05 0.47804552 0.222798
-0.0005900139 -0.00020026512 -0.00022567411 0.35648763 0.15266454 5.082368e-38

weight f4 [1, 54]
00000000: 2ba5 32be 0c35 2e3d 7e03 1bbe 37fe e937
00000010: 39c8 3cbd f5b4 f1b6 f0d3 cdb6 4507 1bb7
00000020: 1458 c4bd ccdf 9fbd edde 383d 0426 213e
00000030: 31ef 1bbb fba2 10bb 810c 87b4 8baf 15bb
00000040: 145b a9bd f83b d9b8 a9fa 693e 0645 2fbe
00000050: 6226 883e 53c5 783d ecf4 153d f85b 3d3e
00000060: ab96 8536 6ed9 8bbd d6f9 a2be ea7e 07be
00000070: 7ce3 2cbe d524 503b 010a a73d fc07 793d
00000080: b83d ec3c 03a3 92b6 d92b 7e3d c259 e63d
00000090: 6fcd dd39 381b 15bb f5fe 5238 d5d1 3438
000000a0: 07dc b535 1431 df3d fe24 39bb a084 cdbd
000000b0: 7dfb 0bbe c97a 54bb 18f0 12be 09b5 29be
000000c0: 4b92 b239 18ec 483b 7717 ef3a 542c 28be
000000d0: 5880 543e 319f 6a00
-0.17445819 0.04253106 -0.15138051 2.7894142e-05 -0.046089385 -7.203426e-06 -6.134149e-06 -9.2404125e-06
-0.09587112 -0.07806358 0.045134474 0.15737158 -0.0023793692 -0.00220698 -2.5154807e-07 -0.0022840227
-0.08269325 -0.000103585364 0.22849526 -0.17116174 0.26591784 0.060735058 0.03661053 0.18492115
3.981249e-06 -0.06828581 -0.31831235 -0.13232008 -0.16883653 0.0031760235 0.08156205 0.06079863
0.028838024 -4.370116e-06 0.062053535 0.11247589 0.00042305465 -0.002275182 5.030535e-05 4.3110766e-05
1.3549587e-06 0.10898033 -0.0028250809 -0.10035062 -0.13670154 -0.0032421818 -0.14349401 -0.16572966
0.00034059802 0.00306583 0.0018241246 -0.1642316 0.20752084 9.79167e-39
