Predict/RobustScaler_and_net/quadrupole/off_Diagonal_RobustScaler_epoch_100_batchsize_32_L1Loss()_lr_0.0001_weightdecay_0.0001.pt (torch, 278103 bytes, 5 tensors)

weight f4 [252, 18]
-0.583582 0.15518789 0.021333544 0.1575289 0.21070176 -0.6648591 0.012234326 -0.63587034
0.47811216 1.3149018 -0.6976849 0.32879922 -0.40034577 0.6262746 0.2951478 0.8739323
0.12535633 0.5699819 -1.716081 0.22196779 0.14533989 0.12084365 -1.7795186 0.1211811
0.0800521 0.09075316 -0.66747844 0.43065888 -0.23908496 0.099972524 0.08252688 0.41089362
-0.055332053 0.015530439 -0.356212 -0.033206847 -0.4741446 -0.7860451 -0.07894941 -0.7381462
0.3233242 -0.9718897 -0.06732537 -0.93352747 0.43202618 -1.6315384 0.1536311 -0.120358914
0.46616554 -0.014122198 0.5544748 -0.19784759 0.3205248 -0.00031503596 2.0570204 -0.186252
-0.10982355 0.20087871 1.6079134 0.103993446 0.20591058 -0.11334242 0.62932587 -1.2497908
1.5014648 0.5114511 1.4762754 -1.1706789 0.31780717 0.18250228 0.39836913 -0.60268956
-1.13778 0.009972569 -0.0934751 0.27261212 -1.3355913 0.16868146 -0.02138261 0.1610925
-0.077392004 0.010210434 -0.07721361 0.25603402 -0.018976955 0.11669142 0.33030105 0.62085485
-0.11790748 0.42179513 0.6998549 0.2456187 0.014309738 0.041778278 0.13520043 -0.01974815
0.012303245 0.005359634 -0.33737925 -3.4501224 -1.0072231 -0.6371256 -0.9043193 -3.2838857
0.41327232 -0.026950775 -0.13642897 0.6854845 -0.9582327 0.18057525 0.20959008 0.21196447
0.21759798 -0.90177345 0.23559253 -0.9223388 0.29987162 0.34941584 0.99798054 -0.13357379
0.97735655 0.34212923 0.7292927 -0.13916864 0.35066944 -0.12958695 -1.5907108 0.30166677
0.05359994 0.32917804 -1.7858211 0.16010052 0.090420835 0.11767839 -0.78261995 0.40906322
-0.47499266 0.18996966 -0.24872296 0.28229788 0.21201402 0.1325327 0.019586965 0.16963269
0.11124805 0.06914095 0.02078977 -0.07491282 -0.074759685 -0.0147042675 0.031583555 0.07084034
0.15869126 -0.8974852 -0.3874951 0.04350574 -0.06949156 -1.1222198 0.08107596 0.04130138
0.121460065 -1.1867737 0.1087391 0.4062422 -0.49844274 -0.4100983 0.022418601 0.38865831
0.35537422 -0.51033384 0.07340055 -0.1856798 0.3590091 0.1487495 0.5290267 -0.18982379
-0.2770615 -0.21046126 -0.18405849 -0.41304982 -1.7306975 0.26540455 0.23617056 0.21857706
-1.8007628 -0.07260643 -0.002283362 0.23168775 -0.4911779 0.24760537 -0.77535903 -0.11230356
-0.45568702 0.19489737 0.10239674 -0.13307194 0.17236337 -0.066658475 0.7671775 -1.8119533
0.081309736 -1.8137578 1.0514607 0.048092738 0.06079991 0.0446436 0.010712453 -0.42242172
1.2080767 -0.5832742 1.1907191 -0.115253076 -0.5859226 -0.40487605 -0.8025433 1.3259345
0.15711726 0.12231803 0.0591963 -0.048835926 0.041413654 0.02598072 0.07427074 0.10799315
0.007833317 0.12002973 -0.5219913 0.316456 0.6036943 0.30074298 0.8190253 -0.5090542
-1.9304281 -1.1246886 0.7898448 -0.07979644 -0.039606325 -0.04697397 0.71396923 -0.011151013
-0.017540548 -0.02477689 0.22832613 1.5877905 0.30253133 0.15475348 -0.11223933 1.802312
-0.07782245 -0.03970879 -0.62397194 1.6027341 -0.04197925 0.061320357 0.046748962 -0.15264103
00000000: a165 15bf 93e9 1e3e afc3 ae3c 424f 213e
00000010: 34c2 573e 3534 2abf 7c72 483c 66c8 22bf
00000020: 1ecb f43e b44e a83f 7a9b 32bf 5f58 a83e
00000030: 1ffa ccbe 8853 203f 9d1d 973e 07ba 5f3f
00000040: 695d 003e 55ea 113f 8ba8 dbbf 864b 633e
00000050: fbd3 143e e07c f73d 44c7 e3bf cc2d f83d
00000060: 5bf2 a33d cbdc b93d dedf 2abf 527f dc3e
00000070: b0d2 74be 65be cc3d da03 a93d a660 d23e
00000080: dda3 62bd 6273 7e3c 6b61 b6be e703 08bd
00000090: 15c3 f2be 403a 49bf 3ab0 a1bd 26f7 3cbf
000000a0: c08a a53e c3cd 78bf e2e1 89bd a8fb 6ebf
000000b0: 8932 dd3e 40d6 d0bf 7951 1d3e bc7e f6bd
000000c0: 40ad ee3e cb60 67bc 0ff2 0d3f 8f98 4abe
000000d0: d41b a43e 692b a5b9 39a6 0340 d8b8 3ebe
000000e0: 2beb e0bd 26b3 4d3e 1bd0 cd3f 84fa d43d
000000f0: 39da 523e 1220 e8bd 801b 213f 25f9 9fbf
00000100: 0030 c03f 76ee 023f 98f6 bc3f ced8 95bf
00000110: 9fb7 a23e e1e1 3a3e 0af7 cb3e dd49 1abf
00000120: c6a2 91bf fc63 233c e06f bfbd d193 8b3e
00000130: a8f4 aabf d5ba 2c3e 952a afbc 6ff5 243e
00000140: b37f 9ebd aa49 273c 2b22 9ebd e416 833e
00000150: 8f75 9bbc e9fb ee3d 381d a93e 58f0 1e3f
00000160: 7a79 f1bd 88f5 d73e b129 333f 7883 7b3e
00000170: 6473 6a3c b31f 2b3d fb71 0a3e dfc6 a1bc
00000180: 8d93 493c de9f af3b f9bc acbe cece 5cc0
00000190: b0ec 80bf aa1a 23bf 7881 67bf 2f2b 52c0
000001a0: 6e98 d33e dfc7 dcbc 09b4 0bbe ea7b 2f3f
000001b0: bd4e 75bf b8e8 383e c89e 563e 370d 593e
000001c0: 01d2 5e3e a0da 66bf 2b3f 713e 651e 6cbf
000001d0: c688 993e a2e6 b23e a77b 7f3f 91c7 08be
000001e0: 0a34 7a3f 902b af3e edb2 3a3f 3982 0ebe
000001f0: f28a b33e 71b2 04be 699c cbbf 1174 9a3e
00000200: 9c8b 5b3d 068a a83e c995 e4bf 64f1 233e
00000210: 8f2e b93d 5e01 f13d c859 48bf bc70 d13e
00000220: 3d32 f3be 6887 423e 3bb1 7ebe 5989 903e
00000230: 341a 593e a7b6 073e d874 a03c 31b4 2d3e
00000240: 05d6 e33d c599 8d3d 4f4f aa3c e46b 99bd
00000250: 9b1b 99bd 2bea 70bc c25d 013d bd14 913d
00000260: f67f 223e 97c1 65bf c265 c6be 1333 323d
00000270: 9751 8ebd e6a4 8fbf 270b a63d a32b 293d
00000280: 0ec0 f83d 33e8 97bf 9bb2 de3d fafe cf3e
00000290: e333 ffbe 68f8 d1be 37a7 b73c 39fe c63e
000002a0: 9cf3 b53e 3da5 02bf 0753 963d d822 3ebe
000002b0: 0ad0 b73e ca51 183e 4b6e 073f 2b61 42be
000002c0: 01db 8dbe 2883 57be d479 3cbe 447b d3be
000002d0: 7f87 ddbf 1be3 873e b2d6 713e aad2 5f3e
000002e0: 657f e6bf aeb2 94bd 75a4 15bb 8e3f 6d3e
000002f0: ab7b fbbe 438c 7d3e ee7d 46bf 69ff e5bd
00000300: cf4f e9be 2d93 473e 62b5 d13d 0344 08be
00000310: 0680 303e 3d84 88bd bf65 443f 16ee e7bf
00000320: b885 a63d 3729 e8bf 4496 863f e4fc 443d
00000330: 5409 793d 35dc 363d 4983 2f3c a947 d8be
00000340: 42a2 9a3f 7551 15bf 7c69 983f ce09 ecbd
00000350: 06ff 15bf ea4b cfbe 7a73 4dbf 39b8 a93f
00000360: 59e3 203e e081 fa3d d277 723d 2e08 48bd
00000370: 5da1 293d 85d5 d43c 421b 983d 832b dd3d
00000380: 5057 003c 26d2 f53d 39a1 05bf 8506 a23e
00000390: b68b 1a3f fcfa 993e a4ab 513f 6051 02bf
000003a0: 4518 f7bf ccf5 8fbf 4533 4a3f 516c a3bd
000003b0: 3e3a 22bd c767 40bd b0c6 363f bdb2 36bc
000003c0: 32b1 8fbc e8f8 cabc 53ce 693e b83c cb3f
000003d0: 63e5 9a3e b277 1e3e bcdd e5bd 29b2 e63f
000003e0: 6061 9fbd afa5 22bd a0bc 1fbf 6426 cd3f
000003f0: 6ff2 2bbd 0e2b 7b3d d77b 3f3d ee4d 1cbe

bias f4 [252]
1.83 1.0422236 0.6713827 -1.1869476 1.5064489 -3.1086822 1.0229479 1.1542492
-3.2451944 0.97760665 0.7625577 2.2752154 -5.5159755 3.4538352 3.1644557 -1.2221756
-1.6062323 -1.2735332e-07 1.1498797 0.26642904 1.0539297 -5.179146 -0.19110008 0.14114882
-2.6826596 -0.7359651 -0.3052214 -1.6934881 -3.3965962 0.94404113 -5.626937 1.2042085
-0.69526386 -2.91053 -7.187684 0.92455184 0.7982311 2.3939893 -5.699881 -2.2190273
-0.0022925849 2.460432 0.43372446 2.854266 0.5138159 2.2098653 -0.6329274 -4.765978
0.19858126 1.4085798 -1.2402117 2.13075 -0.17634119 0.17526245 -1.073975 -6.3855705
-1.0167648 0.5379913 1.1010925 -1.5047805 -2.8336961 -0.50328106 -0.71991956 1.4959234
-0.2681043 0.66360325 0.48416334 0.32357928 -3.0672047 0.84041905 2.5157127 -1.315599
-5.44028 0.658113 0.18726692 -1.378921 -4.9212217 5.3256125 -0.25329682 2.9354408
1.7199517 -0.13347585 -4.835123 -3.0157874 1.6606222 4.9717846 0.31441158 -0.20269005
1.1422514 -4.6807437 -2.8698013 -1.2248882 -3.3578625 -3.4348915 -0.1967799 -2.621999
1.4340494 -0.907634 -0.33740816 -0.7007983 -2.523178 3.701099 -3.6893256 -4.8812456
1.5131856 3.9212167 -1.843455 3.147423 -1.1800596 0.49205786 -0.27240285 0.22133414
-5.515148 1.7162323 3.7778025 -0.33878046 1.5749763 -2.4558327 0.4258243 3.123739
-0.35038912 -0.8953538 -4.8359375 0.016079318 1.4760393 2.079005 2.0145543 -0.051532075
-4.7680173 2.0113916 -0.0013747063 0.011356244 2.4316766 0.0011124333 -1.9751258 1.0415237
0.7306599 -0.31544074 0.46823138 1.0443064 -0.77021575 -1.7929724 1.9005035 -3.4884179
-0.32227382 1.1668621 -2.4009674e-14 -0.55569994 1.9877712 3.128049 -5.473546 1.7828054
3.479488 2.2108681 0.738946 -0.5960972 -4.7975082 3.6306746 -0.5993888 3.4393704
1.4533058 0.50851583 -0.17671739 0.6088502 0.43513727 0.05804368 0.124625765 1.6654102
0.20299977 -2.474331 3.7790115 -3.9588928 2.019818 1.9768239 0.7063354 -0.22142392
2.0251908 1.1037742 4.058428 1.9177622 -0.29069468 0.10747647 2.7386467 -1.7705898
0.063818075 1.6702404 0.65960944 -5.984648 2.2418323 0.8029145 -1.8991897 1.8501835
3.5221198 1.5311754 -2.0634403 -0.31753886 0.7702634 1.8496863 -0.13561329 -0.69092315
1.7197853 -4.573239 0.15067585 1.893324 -5.3192706 1.498925 -0.6632764 0.6375488
1.9440042 -0.100731485 1.3305063 -1.2836277 -2.9836428 0.23662014 -5.6291437 -0.3410566
1.9281478 -0.1908232 1.2149616 0.8518273 0.8261216 0.8348631 -5.2303157 -2.1213448
-0.8852456 2.7317672 1.9517467 2.5492277 -1.0559812 -0.3397851 1.3515373 -4.602077
-1.3962837 -2.3463168 0.81179005 -1.75242 -5.140438 -0.30952117 -0.8527985 0.0873743
1.0267465 1.1649301 -2.4956183 -4.1748023 0.5326105 -0.8612634 -0.5370333 1.074867
-0.6231261 -2.3318026 2.3155818e-38 -0.912915
00000000: 713d ea3f 9567 853f bddf 2b3f e6ed 97bf
00000010: 51d3 c03f a6f4 46c0 f5ef 823f 70be 933f
00000020: 44b1 4fc0 6e44 7a3f fb36 433f 219d 1140
00000030: df82 b0c0 a30b 5d40 7186 4a40 4070 9cbf
00000040: 0599 cdbf 9dbe 08b4 422f 933f 6369 883e
00000050: 2be7 863f 90bb a5c0 bdaf 43be 5189 103e
00000060: b2b0 2bc0 3568 3cbf fb45 9cbe 38c4 d8bf
00000070: d561 59c0 aeac 713f de0f b4c0 8123 9a3f
00000080: d0fc 31bf 2046 3ac0 8201 e6c0 6eaf 6c3f
00000090: e058 4c3f 1f37 1940 6d65 b6c0 8b04 0ec0
000000a0: 313f 16bb b877 1d40 2211 de3e 4bac 3640
000000b0: 7089 033f 6f6e 0d40 8807 22bf e482 98c0
000000c0: e358 4b3e 584c b43f 42bf 9ebf 355e 0840
000000d0: c992 34be 0078 333e 0378 89bf 9856 ccc0
000000e0: 5925 82bf ccb9 093f 99f0 8c3f a69c c0bf
000000f0: 475b 35c0 07d7 00bf a64c 38bf 6b7a bf3f
00000100: f844 89be e7e1 293f 42e4 f73e 2fac a53e
00000110: 154d 44c0 b425 573f 7001 2140 8c65 a8bf
00000120: c616 aec0 187a 283f e6c2 3f3e 7c80 b0bf
00000130: a67a 9dc0 6b6b aa40 1fb0 81be 43de 3b40
00000140: 6127 dc3f e5ad 08be 54b9 9ac0 a902 41c0
00000150: 458f d43f dc18 9f40 8efa a03e fb8d 4fbe
00000160: 4b35 923f a7c8 95c0 d3aa 37c0 23c9 9cbf
00000170: 38e7 56c0 43d5 5bc0 ac80 49be d5ce 27c0
00000180: ee8e b73f b45a 68bf c3c0 acbe 8467 33bf
00000190: c07b 21c0 cede 6c40 e91d 6cc0 2a33 9cc0
000001a0: 11b0 c13f 37f5 7a40 55f6 ebbf 616f 4940
000001b0: 310c 97bf 02ef fb3e 6378 8bbe 6ba5 623e
000001c0: 187c b0c0 80ad db3f 84c7 7140 a274 adbe
000001d0: d398 c93f 5d2c 1dc0 a505 da3e 57eb 4740
000001e0: 3466 b3be e835 65bf 00c0 9ac0 c6b8 833c
000001f0: dbee bc3f 6b0e 0540 75ee 0040 4c13 53bd
00000200: 9993 98c0 a4ba 0040 7d2f b4ba 8a0f 3a3c
00000210: 97a0 1b40 11cf 913a ecd0 fcbf a650 853f
00000220: 870c 3b3f 7381 a1be 06bc ef3e d5ab 853f
00000230: dc2c 45bf 1f80 e5bf b343 f33f 3d42 5fc0
00000240: 1301 a5be bd5b 953f 8a42 d8a8 5a42 0ebf
00000250: 496f fe3f f431 4840 4a27 afc0 f832 e43f
00000260: eeaf 5e40 dd7e 0d40 912b 3d3f d399 18bf
00000270: 3085 99c0 f95c 6840 8b71 19bf a51e 5c40
00000280: ed05 ba3f 182e 023f 67f5 34be 9bdd 1b3f
00000290: 50ca de3e 36bf 6d3d cb3b ff3d 292c d53f
000002a0: 2cdf 4f3e 705b 1ec0 53db 7140 805e 7dc0
000002b0: b344 0140 9108 fd3f 66d2 343f f4bc 62be
000002c0: ba9c 0140 7948 8d3f a4de 8140 3b79 f53f
000002d0: efd5 94be a01c dc3d fd45 2f40 b0a2 e2bf
000002e0: 0db3 823d 70ca d53f 2adc 283f 3d82 bfc0
000002f0: 2e7a 0f40 ce8b 4d3f a618 f3bf d0d2 ec3f
00000300: 696a 6140 8efd c33f 680f 04c0 7494 a2be
00000310: fb2f 453f 85c2 ec3f 36de 0abe 57e0 30bf
00000320: ed21 dc3f f957 92c0 c54a 1a3e 7158 f23f
00000330: 7737 aac0 c6dc bf3f 7bcc 29bf 6636 233f
00000340: 21d5 f83f 4f4c cebd 084e aa3f ea4d a4bf
00000350: 01f4 3ec0 8d4c 723e f221 b4c0 f89e aebe
00000360: 8ccd f63f 2867 43be dd83 9b3f 5b11 5a3f
00000370: b57c 533f 97b9 553f bf5e a7c0 1dc4 07c0
00000380: 759f 62bf 46d5 2e40 d6d2 f93f 8c26 2340
00000390: 642a 87bf 50f8 adbe 2dff ac3f 3744 93c0
000003a0: 6db9 b2bf 0e2a 16c0 79d1 4f3f 4c4f e0bf
000003b0: 787e a4c0 8f79 9ebe 0151 5abf 4cf1 b23d
000003c0: 6e6c 833f 6e1c 953f 36b8 1fc0 fb97 85c0
000003d0: 2959 083f c27b 5cbf 047b 09bf 3e95 893f
000003e0: 3185 1fbf 413c 15c0 0025 fc00 ccb4 69bf

weight f4 [252, 252]
2.3858502e-38 -0.17563245 2.5391556e-38 -0.14853437 -0.22815509 -0.05525822 2.451398e-38 -0.23182718
-0.11151596 0.25154316 -0.16353984 0.4532388 -0.10302831 -0.21181668 -0.383756 -0.46818197
-0.11261969 0.00021467629 1.6725261e-38 -0.009152959 -0.002474525 -0.13595337 2.3776156e-38 -0.0071585556
0.16500442 -0.1650246 -0.16543421 0.09641153 -0.40066153 -0.14605579 -0.005487537 0.48795232
-0.06571193 0.02747207 -0.03390515 -0.023191292 0.24161199 2.5569656e-38 -0.20086373 -0.12896614
-5.2181476e-06 0.04519356 1.4791271e-38 -0.39038423 -0.0036335704 -0.33410794 2.1567075e-38 -0.02597682
2.5465856e-38 -0.0024169642 -0.030379057 -0.07779352 2.1277527e-38 -2.4262883e-38 0.1522704 -0.0685548
0.24880207 -0.14184809 0.6591394 -0.005054111 0.13983442 -2.33563e-39 -0.1928161 -0.007802266
-0.0013425315 -1.0772803 2.332668e-38 0.020397063 -0.39663756 0.0017442488 0.004544009 0.04179935
-0.119544886 -0.20098792 1.769223e-38 -0.42432648 -0.2613838 0.15274785 -0.0029181056 -0.509695
-0.030364772 1.6770627e-38 -0.1789173 0.45792872 -0.3050272 0.11134863 -0.5546983 -0.053659484
-0.09807102 -0.09074973 0.08782437 -0.016181612 -0.76786953 -0.8179571 0.034023274 0.144378
0.002108867 -0.13285492 0.09205283 2.4507348e-38 -0.06706283 -1.037027 -0.26380175 -0.24434088
0.2898022 -0.287303 0.11255473 -0.22832963 -0.35101315 0.06102341 1.62494e-38 -0.0002714056
0.100683175 -0.6181062 -0.4928935 -0.109791 0.15682183 0.049733065 -0.66542286 -0.9020287
-0.0005709167 0.03961324 -0.0124629205 2.2937018e-38 -0.4182889 2.5750647e-38 0.31155568 -0.26639912
-0.11854166 -0.0017755207 -2.521769e-38 2.655905e-38 0.34736955 -6.631274e-38 -0.11562199 -0.07071063
-0.61862403 -0.34918326 -0.007238214 0.071775906 -2.4032255e-38 -0.12674621 -0.032685988 -0.096624695
-0.0025341792 -0.07635815 5.573966e-39 -0.0031413003 0.1855527 -0.14340676 -0.042398475 -0.52123415
0.31352523 -0.2946123 1.0689838 0.13808754 -0.63242114 -0.35062847 -0.16467969 -0.03171474
0.03080492 -0.22795683 2.5839237e-38 -0.632422 2.568622e-38 0.00047019083 2.5826805e-38 0.7222378
0.22265494 -0.4239752 -1.1362476 -0.45334768 -0.043545336 -0.006451099 -2.507452e-38 -0.53336626
-0.0019983843 -0.54433817 -0.9695005 0.4118486 -0.22244594 2.4380503e-38 -0.17673182 -0.2259302
0.055932105 -1.219134 -0.0028189712 -0.11282945 -0.0015827084 -0.05861748 -0.13589507 -0.30509365
-0.22993192 0.25460088 -0.07009876 -0.5930735 0.71601856 -0.024507042 -0.041509353 -2.4992396e-38
-1.5358255 -0.43607822 -2.6125932e-38 -2.4450808e-38 -0.1869308 -0.00067246053 -0.20424764 0.68240243
-0.009291284 -0.0030077705 0.3945949 0.07724802 -0.12050081 -0.14648238 0.021647997 -2.221006e-38
-0.009803853 -0.010560268 0.38093215 0.22529985 0.15789606 0.64269936 -0.3330974 -0.0038024301
-0.3130641 2.4143005e-38 0.38023973 -0.08494815 2.4686182e-38 -0.7713704 -0.0010473385 -0.40069562
0.04108431 -0.08098367 -0.0075302487 -0.16953881 -0.48870322 2.3493297e-38 -0.014175331 -0.19663507
-0.8683974 2.2429416e-38 -0.5267164 -0.38396555 2.0023839e-38 -0.08275759 -0.16591108 0.004950332
-0.36956987 0.09122225 -8.04825e-39 0.003635864 0.70684695 -0.14331898 -0.005579411 -0.051491775
00000000: e6e5 0101 fed8 33be aa3e 0a01 6519 18be
00000010: 7da1 69be 7156 62bd 8077 0501 1b64 6dbe
00000020: 7b62 e4bd 44ca 803e fd76 27be ea0e e83e
00000030: 8200 d3bd 79e6 58be ab7b c4be 8cb5 efbe
00000040: 27a5 e6bd ba1a 6139 391f b600 4bf6 15bc
00000050: a42b 22bb 5c37 0bbe 2073 0101 5192 eabb
00000060: ebf6 283e 35fc 28be 9667 29be 6973 c53d
00000070: 8223 cdbe a68f 15be ccd0 b3bb e3d4 f93e
00000080: fa93 86bd 1b0d e13c 20e0 0abd aafb bdbc
00000090: 2269 773e e636 0b01 39af 4dbe b30f 04be
000000a0: 8c17 afb6 e21c 393d 0c10 a100 71e0 c7be
000000b0: 3221 6ebb 3210 abbe 3bd8 ea00 57cd d4bc
000000c0: 39a6 0a01 ee65 1ebb 80dd f8bc 3652 9fbd
000000d0: 17b1 e700 8619 0481 c6ec 1b3e 7566 8cbd
000000e0: f8c5 7e3e a040 11be 5cbd 283f f59c a5bb
000000f0: c130 0f3e c96e 1980 9571 45be 27aa ffbb
00000100: e2f7 afba 52e4 89bf 4b01 fe00 be17 a73c
00000110: 1414 cbbe 479f e43a e9e5 943b cc35 2b3d
00000120: f3d3 f4bd c7cf 4dbe bda6 c000 5241 d9be
00000130: 19d4 85be ef69 1c3e b03d 3fbb 5f7b 02bf
00000140: 8bbf f8bc af9d b600 1936 37be a275 ea3e
00000150: 862c 9cbe c00a e43d b500 0ebf 0cca 5bbd
00000160: 75d9 c8bd ffda b9bd 43dd b33d 4d8f 84bc
00000170: 1993 44bf a365 51bf fd5b 0b3d d4d7 133e
00000180: eb34 0a3b 1f0b 08be 3286 bc3d 426e 0501
00000190: 3d58 89bd 4dbd 84bf 0611 87be 7f34 7abe
000001a0: f460 943e 6119 93be 1883 e63d 3ecf 69be
000001b0: ffb7 b3be aff3 793d b7f0 b000 714b 8eb9
000001c0: fb32 ce3d 353c 1ebf 895c fcbe 1bda e0bd
000001d0: e795 203e e6b4 4b3d 2759 2abf 5aeb 66bf
000001e0: 92a9 15ba 7e41 223d 4731 4cbc 13c3 f900
000001f0: f629 d6be 2a33 0c01 3a84 9f3e 7765 88be
00000200: f8c5 f2bd 97b8 e8ba 544c 0981 ea99 1001
00000210: 6cda b13e 3c85 b481 39cb ecbd bcd0 90bd
00000220: 255e 1ebf 26c8 b2be 8a2e edbb 3fff 923d
00000230: 13d8 0281 c2c9 01be bee1 05bd 2be3 c5bd
00000240: 7914 26bb a961 9cbd f3b1 3c00 46de 4dbb
00000250: 8701 3e3e 39d9 12be 06aa 2dbd 9a6f 05bf
00000260: 6186 a03e 6cd7 96be 76d4 883f d266 0d3e
00000270: 5ae6 21bf 9385 b3be cba1 28be 51e7 01bd
00000280: 995a fc3c 846d 69be a4ae 0c01 68e6 21bf
00000290: 5ed9 0b01 f283 f639 509d 0c01 94e4 383f
000002a0: a8ff 633e 4713 d9be 9070 91bf 301d e8be
000002b0: 985c 32bd be63 d3bb c884 0881 b18a 08bf
000002c0: 53f7 02bb bf59 0bbf 2f31 78bf d2dd d23e
000002d0: dec8 63be 76bd 0401 30f9 34be 3f5a 67be
000002e0: 1019 653d 950c 9cbf 7dbe 38bb 2013 e7bd
000002f0: e272 cfba e218 70bd 1428 0bbe 3c35 9cbe
00000300: 4673 6bbe 0c5b 823e f08f 8fbd aad3 17bf
00000310: fe4c 373f fec2 c8bc b605 2abd 5112 0881
00000320: ee95 c4bf a545 dfbe 3c3e 0e81 741f 0581
00000330: ca6a 3fbe 1048 30ba 4b26 51be edb1 2e3f
00000340: 783a 18bc 041e 45bb 5808 ca3e 3634 9e3d
00000350: 21c9 f6bd 7aff 15be 2457 b13c 9cd8 f180
00000360: 57a0 20bc f904 2dbc 8a09 c33e 01b5 663e
00000370: 81af 213e f287 243f be8b aabe 3132 79bb
00000380: f049 a0be 7072 0301 c8ae c23e 4cf9 adbd
00000390: 8467 0601 8878 45bf d946 89ba fa27 cdbe
000003a0: 0548 283d c4da a5bd 4ec0 f6bb 959b 2dbe
000003b0: 4f37 fabe c1d1 ff00 a63f 68bc b45a 49be
000003c0: 4b4f 5ebf 163c f400 e3d6 06bf 2297 c4be
000003d0: 510a da00 d07c a9bd 98e4 29be 6536 a23b
000003e0: 4338 bdbe bbd2 ba3d 3fa3 5780 ad47 6e3b
000003f0: ecf3 343f 36c2 12be 7ed3 b6bb 0ae9 52bd

bias f4 [252]
-0.10745187 0.77135175 1.5675905 -5.3217855e-12 1.9358868e-38 0.6236297 -0.07260801 -2.7239185e-38
0.96355265 -0.8383286 1.7364268 -0.26419136 -0.33409137 1.1090746 0.048165925 0.3668363
0.32868975 1.329979 -0.0031575032 0.88001865 -2.1638435e-38 -0.16170794 3.2800014e-38 2.2037411e-38
-0.032495137 0.72853374 -0.02222949 1.2659439 0.26909325 0.83403724 0.5126998 0.20043233
0.9549698 -0.0006296642 -1.2494554e-38 0.5712105 -0.379452 0.424797 0.5921657 0.35806584
-0.33603123 0.5606768 0.6171368 2.3077546e-38 0.0876207 0.21003921 0.61742955 0.078405075
0.5567911 -0.40379652 -5.628288e-23 -0.04374666 -1.8911946e-38 -0.12385776 2.052567 0.71995425
-0.35613894 -0.23227464 -0.03716994 0.8001952 1.7073572e-38 1.0723512 0.24527623 3.1581276e-38
0.29609534 1.003278 -0.4904755 -0.00016788984 -0.039532505 1.36087 -0.05040246 0.3382581
-0.44158223 -0.009304539 0.6270604 1.2850301 0.21925873 -0.016527832 2.2198129e-38 -4.96826e-39
0.31825492 -0.110138066 1.808947e-38 -1.1765661 1.0257949 0.62810004 0.9521602 -0.116700694
-0.09493697 1.536321 1.4045366e-38 0.8387855 -6.444195e-05 -7.06031e-28 1.2494993 0.3785395
0.957283 -0.021877915 -0.4210245 1.0579451 0.65447813 -0.08089546 1.9727235e-38 2.623689e-38
-0.036872465 0.14092664 -1.278723e-39 -0.00225216 -0.13536695 1.0042043 0.86528134 0.95128757
-0.14944665 0.8867054 1.6377977 -0.34595624 0.14257875 -8.953482e-19 -0.0001686375 0.20989083
-0.23723096 2.7064e-39 -0.00045554238 -0.32062224 0.7369721 5.474534e-38 0.15935156 -0.21866773
1.6339104e-38 -0.18916744 -0.05667165 1.23924 -0.2735501 0.8115659 -1.7137538e-38 -0.06773332
0.13612145 0.26931024 -0.059175722 -0.080483295 0.9163258 0.95266485 -1.2681217e-38 0.026433997
0.9976463 0.6498854 -9.876658e-14 4.677436e-39 0.01701414 -0.25584254 -0.1784479 0.63233465
-0.0015770812 -0.1444716 0.55899787 0.5798094 -0.09159935 -0.22487152 0.38030264 8.673229e-39
0.965367 0.20136654 -2.1929277e-38 0.41578028 0.23997302 -0.44453135 -0.37360647 0.1800786
1.075381 1.1731615 1.1094726 0.35864487 0.0059297807 0.7756888 1.1204491 0.16702925
-0.11033833 0.097108565 0.08762804 -0.6376066 0.06295854 -1.9251024e-15 2.9371353e-38 1.3317173
0.45578784 -0.8785255 -0.012667305 -0.038902882 -3.3298024e-38 -2.075871e-17 -1.5260455e-06 0.06603667
-0.038103856 -0.127711 -0.26650724 0.91262126 -0.32403037 -0.00011648282 -0.10111062 -0.103845455
0.9379619 0.72131926 -0.11678399 0.9602547 -0.41813967 -1.8158236e-17 -0.10100908 0.55706364
1.5938709e-38 -0.09574874 1.5179075 3.144853e-38 1.0601583 0.41986284 0.16664107 -0.12744091
-1.284704e-08 -3.5207235e-05 0.40616998 -0.3092906 1.702707 2.039138 -1.0142757 0.6077178
0.82823855 -0.34448865 -0.4185125 1.549188 0.49167123 0.5900925 -0.32944188 0.9683362
-4.738263e-24 -0.027294643 0.9475592 -3.621666e-29 0.26150376 0.43112507 -0.046587124 -0.0028518508
1.4759745e-38 1.4390342 -9.737545e-39 0.88992494 -0.00083165936 0.3289669 1.0318695 -0.024122551
-0.48765144 -0.09128063 0.010862174 0.96151704
00000000: ba0f dcbd 4f77 453f cea6 c83f 623e bbac
00000010: a6cc d200 32a6 1f3f 82b3 94bd e24d 1481
00000020: 63ab 763f b49c 56bf 3c43 de3f 1744 87be
00000030: 060e abbe 28f6 8d3f a249 453d f8d1 bb3e
00000040: 064a a83e c03c aa3f 1dee 4ebb e748 613f
00000050: 279f eb80 c496 25be 8c94 3201 56f7 ef00
00000060: 9f19 05bd 3081 3a3f 9f1a b6bc 730a a23f
00000070: 97c6 893e 7783 553f 4b40 033f 223e 4d3e
00000080: e778 743f 0d10 25ba bc0d 8880 da3a 123f
00000090: 8847 c2be fe7e d93e 2c98 173f 6854 b73e
000000a0: 490c acbe 8488 0f3f adfc 1d3f cf4a fb00
000000b0: 7b72 b33d 8514 573e dd0f 1e3f d792 a03d
000000c0: dd89 0e3f 6bbe cebe 6a15 889a b32f 33bd
000000d0: d0ee cd80 23a9 fdbd 425d 0340 ec4e 383f
000000e0: d857 b6be 67d9 6dbe 823f 18bd 98d9 4c3f
000000f0: 2cea b900 ce42 893f b129 7b3e e0f1 2b01
00000100: cf99 973e 6a6b 803f 9b1f fbbe 960b 30b9
00000110: d6ec 21bd fd30 ae3f cf72 4ebd 2a30 ad3e
00000120: 1117 e2be 1172 18bc 0887 203f de7b a43f
00000130: 5c85 603e 6065 87bc 5ab7 f100 7d19 3680
00000140: 4ff2 a23e 1190 e1bd 15fa c400 b899 96bf
00000150: 3f4d 833f 2acb 203f c5c0 733f c600 efbd
00000160: 506e c2bd 2ba6 c43f c4f0 9800 a6ba 563f
00000170: 0225 87b8 0ac0 5f92 98ef 9f3f eecf c13e
00000180: 8010 753f 5039 b3bc 8690 d7be bf6a 873f
00000190: e18b 273f 85ac a5bd 81cf d600 e3d8 0e01
000001a0: 9507 17bd 134f 103e 8fec 0d80 fa98 13bb
000001b0: a29d 0abe c489 803f 1483 5d3f 9587 733f
000001c0: 8b08 19be 20ff 623f 5ba3 d13f 2d21 b1be
000001d0: 2a00 123e 4c21 84a1 49d4 30b9 9fed 563e
000001e0: acec 72be 5878 1d00 ddd5 eeb9 9928 a4be
000001f0: 34aa 3c3f ef07 9501 0e2d 233e 6fea 5fbe
00000200: c6ea b100 1cb5 41be 8820 68bd 6b9f 9e3f
00000210: c20e 8cbe c8c2 4f3f 7c9c ba80 c4b7 8abd
00000220: 6c63 0b3e 08e3 893e 3e62 72bd 6dd4 a4bd
00000230: 5494 6a3f d8e1 733f 1316 8a80 1c8c d83c
00000240: bf65 7f3f e45e 263f 0f67 dea9 caee 3200
00000250: 3d61 8b3c cbfd 82be 0cbb 36be afe0 213f
00000260: 10b6 ceba 5df0 13be 7c1a 0f3f 646e 143f
00000270: 7198 bbbd b844 66be 07b7 c23e 6f71 5e00
00000280: 4b22 773f 0833 4e3e e7c9 ee80 27e1 d43e
00000290: 7dbb 753e 9d99 e3be 5949 bfbe 8666 383e
000002a0: 16a6 893f 282a 963f 3303 8e3f 4da0 b73e
000002b0: 9b4e c23b 8b93 463f e06a 8f3f b709 2b3e
000002c0: 10f9 e1bd dbe0 c63d 5476 b33d 303a 23bf
000002d0: 68f0 803d dfb7 0aa7 b1e9 1f01 b675 aa3f
000002e0: 065d e93e 0ce7 60bf 878a 4fbc a158 1fbd
000002f0: ac4a 3581 1e77 bfa3 86d2 ccb5 3c3e 873d
00000300: ca12 1cbd acc6 02be a373 88be 8ca1 693f
00000310: 4fe7 a5be 3d48 f4b8 1613 cfbd edac d4bd
00000320: 451e 703f 61a8 383f 722c efbd 41d3 753f
00000330: 6716 d6be ec7a a7a3 d9dd cebd b99b 0e3f
00000340: a38e ad00 ea17 c4bd cb4a c23f da38 2b01
00000350: 44b3 873f 43f8 d63e f5a3 2a3e df7f 02be
00000360: e1b5 5cb2 7bab 13b8 83f5 cf3e 565b 9ebe
00000370: 4ef2 d93f 3d81 0240 c9d3 81bf 6593 1b3f
00000380: 7107 543f d160 b0be 4547 d6be cb4b c63f
00000390: 55bc fb3e 4d10 173f 9bac a8be e2e4 773f
000003a0: 7c4d b798 0499 dfbc 3d93 723f eaa3 3790
000003b0: d2e3 853e 6dbc dc3e 24d2 3ebd 1ee6 3abb
000003c0: 2ab8 a000 4632 b83f 5008 6a80 1fd2 633f
000003d0: b703 5aba 596e a83e 4d14 843f a89c c5bc
000003e0: 73ad f9be 57f1 babd 43f7 313c fb25 763f

weight f4 [1, 252]
-4.807476 -2.5968907 3.2251315 -0.0003218384 0.0028800515 -3.4172919 0.06887615 -4.6209933e-38
3.0326817 -5.9131737 2.7041771 0.30560917 -0.15020454 -3.958417 8.706551 -3.266903
-6.5886745 -2.1480076 -4.4349284 3.4926414 -0.0022272645 0.10665193 -7.2477833e-06 0.00073293096
4.3313413 6.20812 -5.5522504 2.1502538 -7.116287 -4.59052 3.5280452 3.5707436
-3.086946 0.0011415642 -0.0031978993 3.2822971 4.8835273 -6.5039988 -5.3241143 -2.5869105
5.885859 -3.974679 -3.5270371 1.6499906e-05 -3.2021596 -2.7499743 -3.0098662 3.8987985
-5.843007 6.053889 -0.0030469438 -3.767131 0.0020569928 2.6521056 2.496413 4.18947
-0.24937032 4.4042363 -7.5973015 -5.5174527 0.0017353138 -2.997847 3.575115 0.0005076933
-4.4163866 -3.4759276 -3.5422037 2.950039e-05 -2.354526 -3.3772082 3.939228 -4.435134
6.473737 0.032736566 3.2811708 2.9043062 1.4005905 -0.019809129 4.712965e-38 0.003166815
-7.667075 -1.8313327 8.477627e-06 0.4149299 -1.8304528 -5.378739 3.0689807 -5.0845013
-4.9822507 2.6975446 -0.0014816792 -3.6318083 0.0009537084 -0.003146852 2.5967114 -3.210831
-4.2582183 -4.626745 0.101946495 2.126912 1.4896908 -3.9755597 3.8079278e-07 -0.00094225997
-3.6239586 3.8276484 0.001966687 -0.0026567923 0.07692939 2.8394532 -2.837319 -3.3565652
0.10793062 -2.1271017 2.9753451 3.7018096 0.06424048 -0.0025139286 3.7464342e-05 -1.9283878
-0.96340406 -0.0010925148 3.9170427e-05 5.206083 4.5555067 -0.0003385423 -2.425986 3.0345516
-8.430247e-05 -0.07647023 3.5065446 3.2586021 4.82349 2.9977832 2.6429539e-20 -3.8907812
-3.1115084 -3.62539 -4.242557 -1.7724978 4.7095346 -2.9819365 -2.1177514e-06 -4.519012
2.52967 5.826764 -0.0016804835 -0.0025103039 5.390652 4.865249 4.7787027 -3.5976179
0.0013040911 0.08545827 -3.313758 -7.093336 -4.849639 4.96836 -1.3997166 -0.0014802868
-4.292823 -3.3228352 1.8022743e-28 3.3438053 3.2369826 5.87492 5.6184626 -7.7254987
-2.4782426 -2.7395306 2.1098404 -0.5996062 0.03664635 3.2086353 1.8686304 0.4078022
-5.015601 -3.9537504 3.8101723 -0.15520266 -0.06524327 -0.001636804 -0.00032249864 -1.3049705
-3.0438213 -0.3300684 -4.551395 -3.783221 -0.001889135 -3.6011127e-15 0.00032183167 -4.200997
-4.701524 4.346761 -5.3042502 -4.703471 3.5318933 -0.0031491313 -4.9775286 -4.804929
-2.0621018 -5.1461735 -0.14814481 4.101459 4.943941 0.002548472 -4.9903436 -5.9629116
-0.000727419 4.0001345 -2.7877116 0.00041933302 -2.600388 3.160985 -3.7745922 4.263937
0.0009882624 0.0002657928 8.681411 4.7103586 2.3365862 2.372024 -4.145783 -3.9117255
2.3188972 -0.104341745 5.9107556 2.4161541 0.9032363 0.83085346 2.9939444 -3.9296887
0.0002976751 -2.3835301 -3.161839 0.0020720162 3.6829512 -2.9216535 -5.0267425 -0.002266946
0.000193332 2.4326055 -4.157882e-08 2.6759942 -3.3259174e-05 3.505974 -3.316904 -2.3820813
6.314659 -5.088644 -7.829131 3.5885508
00000000: d8d6 99c0 7533 26c0 8e68 4e40 6bbc a8b9
00000010: 3fbf 3c3b e9b4 5ac0 f00e 8d3d 3f97 7b81
00000020: 7517 4240 b838 bdc0 3d11 2d40 ce78 9c3e
00000030: 38cf 19be b456 7dc0 084e 0b41 f014 51c0
00000040: 6cd6 d2c0 f578 09c0 efea 8dc0 7087 5f40
00000050: 4cf7 11bb 546c da3d fc31 f3b6 2a22 403a
00000060: 599a 8a40 eba8 c640 09ac b1c0 c29d 0940
00000070: a0b8 e3c0 8ae5 92c0 7ecb 6140 1087 6440
00000080: 8690 45c0 8aa0 953a d993 51bb 2811 5240
00000090: db45 9c40 c220 d0c0 255f aac0 f18f 25c0
000000a0: f558 bc40 2461 7ec0 faba 61c0 4769 8a37
000000b0: 2ff0 4cc0 94ff 2fc0 a6a1 40c0 ea85 7940
000000c0: eaf9 bac0 75b9 c140 3caf 47bb ad18 71c0
000000d0: 9dce 063b 19bc 2940 3bc5 1f40 2310 8640
000000e0: ef5a 7fbe 81ef 8c40 181d f3c0 f98e b0c0
000000f0: 7873 e33a badc 3fc0 afce 6440 b816 053a
00000100: 0a53 8dc0 9975 5ec0 77b3 62c0 9b77 f737
00000110: 8eb0 16c0 2e24 58c0 501c 7c40 9eec 8dc0
00000120: da28 cf40 c716 063d b4fe 5140 27e0 3940
00000130: 8d46 b33f c146 a2bc 934c 8001 578a 4f3b
00000140: ae58 f5c0 1c69 eabf 213b 0e37 b171 d43e
00000150: 474c eabf a11e acc0 2e6a 4440 3cb4 a2c0
00000160: 996e 9fc0 92a4 2c40 e734 c2ba 8c6f 68c0
00000170: 4a02 7a3a 6a3b 4ebb 8530 2640 417e 4dc0
00000180: 5343 88c0 4c0e 94c0 53c9 d03d 541f 0840
00000190: 30ae be3f 926f 7ec0 c36f cc34 ff01 77ba
000001a0: f0ee 67c0 31f8 7440 88e3 003b 941d 2ebb
000001b0: 288d 9d3d 9ab9 3540 a296 35c0 f7d1 56c0
000001c0: bb0a dd3d 6f22 08c0 0e6c 3e40 73ea 6c40
000001d0: 8390 833d b9c0 24bb 0823 1d38 69d5 f6bf
000001e0: a6a1 76bf b732 8fba ed4a 2438 3b98 a640
000001f0: b6c6 9140 617e b1b9 5b43 1bc0 1836 4240
00000200: 8bcb b0b8 6d9c 9cbd 3a6b 6040 f08c 5040
00000210: 085a 9a40 aedb 3f40 b49e f91e 8f02 79c0
00000220: f422 47c0 6406 68c0 07c3 87c0 35e1 e2bf
00000230: 82b4 9640 0cd8 3ec0 b11e 0eb6 bf9b 90c0
00000240: 1de6 2140 da74 ba40 ab43 dcba e983 24bb
00000250: 3980 ac40 1fb0 9b40 22eb 9840 5f3f 66c0
00000260: 09ee aa3a bf04 af3d 9c14 54c0 9cfc e2c0
00000270: 3e30 9bc0 cefc 9e40 ea29 b3bf 2f06 c2ba
00000280: ce5e 89c0 55a9 54c0 2577 6411 e800 5640
00000290: b92a 4f40 58ff bb40 72ca b340 4937 f7c0
000002a0: 879b 1ec0 7854 2fc0 a007 0740 cb7f 19bf
000002b0: 7c1a 163d 485a 4d40 482f ef3f 73cb d03e
000002c0: ce7f a0c0 3f0a 7dc0 ddd9 7340 72ed 1ebe
000002d0: 439e 85bd 078a d6ba 0915 a9b9 4609 a7bf
000002e0: f8cd 42c0 bafe a8be 07a5 91c0 4b20 72c0
000002f0: da9c f7ba 67be 81a7 84bb a839 916e 86c0
00000300: e272 96c0 ab18 8b40 6bbc a9c0 d682 96c0
00000310: 8a0a 6240 a861 4ebb ea47 9fc0 fac1 99c0
00000320: 7af9 03c0 74ad a4c0 46b3 17be 273f 8340
00000330: c434 9e40 4404 273b e5b0 9fc0 2cd0 bec0
00000340: 43b0 3eba 1a01 8040 de69 32c0 edd9 db39
00000350: c26c 26c0 944d 4a40 eb92 71c0 2c72 8840
00000360: 9588 813a 1b5a 8b39 0fe7 0a41 42bb 9640
00000370: a18a 1540 3ecf 1740 41aa 84c0 b659 7ac0
00000380: d068 1440 20b1 d5bd e924 bd40 45a2 1a40
00000390: 7f3a 673f d0b2 543f c99c 3f40 0580 7bc0
000003a0: 4711 9c39 c28b 18c0 925b 4ac0 aaca 073b
000003b0: 79b5 6b40 5ffc 3ac0 13db a0c0 0b91 14bb
000003c0: 2ab9 4a39 cfaf 1b40 6594 32b3 7d43 2b40
000003d0: c47f 0bb8 e161 6040 2848 54c0 0574 18c0
000003e0: b011 ca40 2cd6 a2c0 3e88 fac0 d1aa 6540
