Train/Diagonal/Diagonal_RobustScaler_epoch_100_batchsize_32_L1Loss()_lr_0.0001_weightdecay_0.0001.pt (torch, 16855 bytes, 6 tensors)

weight f4 [54, 6]
-2.3867975e-38 -9.451045e-39 5.421076e-39 1.271101e-39 1.1669212e-38 2.0061419e-38 0.02693438 -0.0103894025
0.023592778 0.009242468 0.26963595 -0.16122228 0.04223736 0.04782837 -0.0019209642 -0.031630076
-0.009134348 0.39678982 -0.2686894 0.0015439062 0.038538836 -0.20674218 -0.10101838 -0.025752468
0.12050932 0.025727212 -0.5744391 0.012547769 -0.0069037555 0.36909774 -0.04275989 0.0859584
-0.01818419 -0.08909608 -0.11797628 -0.1296625 1.655099e-39 -1.3975873e-38 -1.8991232e-38 -2.7198744e-38
-2.6721893e-38 1.731478e-38 0.021578394 -0.17154287 0.029103283 -0.037790947 0.36296827 -0.05246551
-0.05369646 0.08099722 0.076297276 0.1537687 -0.12759171 -0.22087462 0.099787824 -0.055305555
-0.0051140767 0.00019591484 0.12088303 -0.10785818 0.03706414 -0.046343286 0.016746636 0.028578853
0.08233514 0.0034492186 0.028178439 -0.0013395684 0.07167768 0.18484914 0.053788524 -0.3592816
-5.810715e-38 -8.049155e-39 -2.0210136e-38 -1.3632375e-38 -5.05925e-38 -5.691848e-38 0.032041192 0.043718804
0.0056685177 0.12055887 -0.39330617 -0.31827953 -0.014459039 0.085493974 -0.022023717 -0.230988
-0.0804425 -0.14244917 -0.014760459 0.024994731 -0.0015626656 -0.008713158 -0.18054111 0.0838573
1.0710124e-05 -0.00357894 -0.0036575268 2.4299903e-05 -5.7829017e-09 -6.524599e-09 -0.0044484506 -0.0008573001
0.07337078 -0.038415372 0.28089407 -0.00019089253 0.103509806 0.020792315 0.026996452 0.42459232
-0.17642811 -0.008306592 0.099996194 -0.063649885 -0.0014053112 -0.051255308 0.08562279 0.07923295
-0.008617579 -0.024764815 0.0059081516 -0.058733918 0.040336136 0.05708011 0.012747796 0.0047767386
-0.014229228 0.020519165 0.022327596 0.01664619 0.09133882 0.025967265 -0.21410394 0.0747977
-0.0003399213 0.1311094 -1.533827e-38 -8.365714e-39 -1.1926765e-38 -4.130294e-39 -2.7413322e-38 -3.638207e-38
0.19667473 -0.00043877543 0.0005036365 0.053577714 -0.3550309 -0.19867264 0.03200868 0.09301253
0.037832085 0.1286028 -0.1791666 -0.19806194 0.15518892 -0.017537104 -0.012132901 0.003523746
0.45037416 -0.109971665 0.14761496 -0.14973512 -0.17905633 -0.0076715704 -0.099692546 0.022379791
0.122641474 -0.29429385 0.002142431 -0.0057348874 0.2418773 -0.009334401 0.035635214 -0.11306868
0.056202844 -0.04050271 -0.006323472 -0.016618516 -0.1453099 -0.011736262 0.118339956 -0.21942191
0.061991252 -0.100470036 -0.020188533 0.0572343 -0.013764879 -0.002107577 -0.0044794013 0.16204095
-0.0026374531 -0.00041857292 -0.002978225 3.6450016e-22 3.8893313e-18 5.4068764e-22 0.013226283 -0.34172064
0.0954667 -0.013911308 0.038148258 -0.021975324 -0.0002110501 -0.00034621253 -0.0011532229 5.578353e-28
1.2964498e-10 3.2011527e-14 0.14588796 -0.053679615 0.1231775 0.07253948 -0.2425355 -0.22338498
-4.5977867e-11 -4.8823324e-07 -2.5547012e-08 5.35108e-38 -1.543419e-38 -7.888999e-39 -0.118485734 0.043043774
0.007304229 -0.03559383 0.12384105 0.032604024 -0.087344356 -0.0023455196 0.08127241 0.01227027
-0.025875885 0.014792812 0.031284522 -0.08687774 0.007807687 0.069633156 0.17394263 -0.017060215
-0.0019347406 -0.0022918568 -0.0031848785 -1.4797685e-38 3.541506e-38 3.101332e-38 0.17993282 -0.106050536
-0.15955716 -0.016027212 -0.11696435 -0.017588194 -0.027197199 -0.011331852 0.04558365 -0.04157244
00000000: 1af3 0181 abe9 6680 c107 3b00 50d7 0d00
00000010: 0411 7f00 1373 da00 7da5 dc3c 5038 2abc
00000020: a445 c13c b86d 173c b90d 8a3e 7417 25be
00000030: 1501 2d3d aee7 433d ddc8 fbba 8a8e 01bd
00000040: 3ba8 15bc 0928 cb3e a891 89be e55c ca3a
00000050: e6da 1d3d 39b4 53be b9e2 cebd d7f6 d2bc
00000060: 97cd f63d e0c1 d23c 710e 13bf 2895 4d3c
00000070: e638 e2bb 61fa bc3e ff24 2fbd f50a b03d
00000080: 03f7 94bc 0178 b6bd 8c9d f1bd 3fc6 04be
00000090: be05 1200 0c2f 9880 d4cb ce80 8415 1481
000000a0: e27c 1181 908a bc00 2cc5 b03c efa8 2fbe
000000b0: 026a ee3c aeca 1abd fad6 b93e 13e6 56bd
000000c0: d2f0 5bbd dfe1 a53d bf41 9c3d 8b75 1d3e
000000d0: 67a7 02be f52c 62be 8f5d cc3d 1488 62bd
000000e0: fc93 a7bb 7d6e 4d39 8691 f73d c0e4 dcbd
000000f0: 91d0 173d 75d2 3dbd 3e30 893c 331e ea3c
00000100: 539f a83d 490c 623b 78d6 e63c 7594 afba
00000110: bfcb 923d 1849 3d3e 5b51 5c3d c2f3 b7be
00000120: c62e 9e81 c5a5 5780 a311 dc80 8471 9480
00000130: d4b9 8981 64f2 9a81 a03d 033d 7d12 333d
00000140: f9be b93b 92e7 f63d 6d5f c9be 89f5 a2be
00000150: 9be5 6cbc 7717 af3d 156b b4bc 1e88 6cbe
00000160: 0abf a4bd 32de 11be dad5 71bc c0c1 cc3c
00000170: 5bd2 ccba a2c1 0ebc c5df 38be 60bd ab3d
00000180: a2af 3337 a68c 6abb 1eb3 6fbb a5d7 cb37
00000190: f1b2 c6b1 fb2e e0b1 4fc4 91bb 70bc 60ba
000001a0: 6b43 963d 7059 1dbd 59d1 8f3e 532a 48b9
000001b0: f3fc d33d a554 aa3c aa27 dd3c 2a64 d93e
000001c0: 92a9 34be 5f18 08bc ceca cc3d df5a 82bd
000001d0: 6b32 b8ba 16f1 51bd 005b af3d e344 a23d
000001e0: bf30 0dbc 95df cabc 2b99 c13b fa92 70bd
000001f0: 8137 253d d5cc 693d 22dc 503c 3086 9c3b
00000200: b521 69bc cf17 a83c 5de8 b63c 975d 883c
00000210: d90f bb3d 4db9 d43c 103e 5bbe 892f 993d
00000220: 7737 b2b9 8b41 063e db04 a780 3518 5b80
00000230: f8de 8180 94f9 2c80 9840 1581 3415 4681
00000240: 1a65 493e 710b e6b9 7906 043a 4e74 5b3d
00000250: 9cc6 b5be d770 4bbe 891b 033d 5a7d be3d
00000260: d1f5 1a3d 74b0 033e 7377 37be c0d0 4abe
00000270: d8e9 1e3e f9a9 8fbc 13c9 46bc a6ee 663b
00000280: 7197 e63e d338 e1bd 6028 173e 2a54 19be
00000290: 8b5a 37be cc61 fbbb 9b2b ccbd d355 b73c
000002a0: 742b fb3d afad 96be 0768 0c3b b9eb bbbb
000002b0: afae 773e 51ef 18bc 3bf6 113d 8d90 e7bd
000002c0: f434 663d 2be6 25bd 2135 cfbb 8e23 88bc
000002d0: 1ecc 14be 7349 40bc 385c f23d 23b0 60be
000002e0: 8aea 7d3d 3cc3 cdbd 6c62 a5bc 836e 6a3d
000002f0: 1686 61bc 461f 0abb f1c7 92bb 10ee 253e
00000300: 1fd9 2cbb e873 dbb9 532e 43bb ab53 dc1b
00000310: b27d 8f22 ae69 231c 0db3 583c 02f6 aebe
00000320: 0c84 c33d 41ec 63bc 5941 1c3d 9805 b4bc
00000330: 544d 5db9 dc83 b5b9 bd27 97ba fac8 3012
00000340: d18b 0e2f c72a 1029 a763 153e 28df 5bbd
00000350: 7c44 fc3d 948f 943d 3a5b 78be 08bf 64be
00000360: 7a36 4aae 220f 03b5 7972 dbb2 96ab 9101
00000370: 3e10 a880 52e7 5580 a6a8 f2bd ab4e 303d
00000380: 5058 ef3b d6ca 11bd 60a0 fd3d cc8b 053d
00000390: 99e1 b2bd 4ab7 19bb 2672 a63d 3e09 493c
000003a0: aaf9 d3bc 8d5d 723c 3324 003d f5ec b1bd
000003b0: a0d7 ff3b d49b 8e3d 041e 323e ddc1 8bbc
000003c0: 1f97 fdba fa32 16bb 65b9 50bb ed21 a180
000003d0: 64d1 4001 42da 2801 4f40 383e 0631 d9bd
000003e0: f462 23be 804b 83bc 018b efbd 1e15 90bc
000003f0: a9cc debc 3ba9 39bc ecb5 3a3d dd47 2abd

bias f4 [54]
-2.6501827e-38 -0.3632424 -0.9136224 1.1899844 0.32012102 0.33815315 -6.5500995e-38 0.6428829
0.24497369 -0.7541195 0.35700965 -0.28960192 1.6843226e-38 -0.4019038 0.3596004 0.36882836
0.0016646937 -0.66437167 -0.73692757 0.707507 0.58294994 0.12094574 0.34946436 -4.1020815e-38
-0.54032475 -0.42479074 -0.8607435 -0.031839382 0.22792758 -0.029292047 0.66771024 -0.18250223
-2.852154e-06 0.18581389 9.1440137e-07 -0.28726006 2.007068e-38 0.7613768 0.5601231 0.83255315
-2.812573e-06 -0.036274128 -0.1527321 -0.8978474 -0.558221 0.13904172 0.16584621 0.69131356
-0.030979553 2.9685732e-38 0.4721943 -5.3189573e-38 -0.65810436 0.040109195
00000000: 284a 1081 e8fa b9be 28e3 69bf 6951 983f
00000010: e7e6 a33e 6922 ad3e 884f b281 f993 243f
00000020: 62da 7a3e fa0d 41bf f8c9 b63e b446 94be
00000030: 1068 b700 56c6 cdbe 8b1d b83e 12d7 bc3e
00000040: da31 da3a 4314 2abf 49a7 3cbf 2e1f 353f
00000050: 353c 153f 66b2 f73d feec b23e ac56 5f81
00000060: b952 0abf 2c7e d9be b059 5cbf 036a 02bd
00000070: d965 693e e0f5 efbc 0fef 2a3f dde1 3abe
00000080: a267 3fb6 ff45 3e3e 2f75 7535 c013 93be
00000090: e48c da00 97e9 423f 3a64 0f3f 3422 553f
000000a0: a3bf 3cb6 2e94 14bd ce65 1cbe 54d9 65bf
000000b0: 92e7 0ebf f460 0e3e 97d3 293e edf9 303f
000000c0: d5c8 fdbc df9f 2101 74c3 f13e b9cb 9081
000000d0: 8779 28bf 8a49 243d

weight f4 [54, 54]
-5.8089045e-38 0.10259945 0.13780189 0.022816688 -0.12360297 -0.07266726 -1.3932676e-38 0.32446057
0.016975703 0.018853083 0.030644603 0.049671885 1.9257832e-38 0.057119038 0.061243955 -0.052239113
-0.0048611104 0.157319 0.021987518 0.010420368 0.061590947 0.0002849619 0.011859676 -1.491542e-39
0.049663693 0.011477628 0.03938831 -0.008911897 0.083038405 -0.0017247248 -0.060995985 0.015979541
3.257276e-20 -0.07258668 1.3742133e-38 -0.16076384 2.1321968e-38 0.14185481 0.029173331 -0.004868156
0.002087928 -0.051623102 -0.016655473 0.16940919 -0.06655925 -0.031311285 -0.03594144 -0.15885876
-0.009499977 2.4323803e-38 -0.1425289 -2.8282166e-38 0.03920038 0.058976643 -1.2559171e-38 0.0054030656
0.013496639 -0.074440405 0.14422281 0.0109170005 2.843576e-38 0.044315018 -0.10008189 -0.04559458
0.047246527 0.023150241 -3.8555497e-38 0.027883016 0.10441241 0.043714594 0.0042837104 0.048246592
0.016677996 0.017064244 -0.03616739 0.048919935 -0.024323089 -5.155091e-38 -0.036256388 0.096614525
0.047836345 0.033048626 0.07731429 0.04788815 0.037450954 -0.082341224 -6.4311416e-19 0.032731414
3.5904103e-38 0.03145192 -1.918027e-38 -0.015895236 -0.015145145 -0.051778622 -0.00052660593 0.057744782
-0.026163664 0.0016500353 0.04784245 -0.08054323 0.05516394 0.184868 -0.04643287 -2.629138e-38
0.03656842 5.972788e-38 -0.02941808 0.029165512 -1.102256e-39 0.007270887 0.17246786 -0.15880418
0.05340417 -0.040419254 -9.70867e-40 -0.07033336 -0.052937537 0.07484368 -0.16859163 -0.041060172
4.3808542e-38 -0.03999456 -0.050679747 0.04357674 -0.0048156036 0.115421705 0.083500594 -0.46060738
-0.06370944 0.06749157 0.013975728 4.679555e-38 0.027071893 -0.025146537 0.10709063 0.041669272
-0.019570827 -0.05299521 -0.046044376 0.035096895 4.3359115e-19 0.023622146 -2.0058874e-38 0.034926977
2.2902124e-38 0.1211058 0.041541256 -0.1401431 0.0015055885 -0.112747215 0.007169713 0.15555395
0.12688886 -0.08001795 0.023280293 -0.07234044 -0.03706979 2.2561201e-38 -0.005679264 6.123464e-39
-0.03889335 0.008506615 2.444619e-38 0.017392255 0.016884971 -0.01994628 0.20246303 0.14967
-2.1131188e-38 -0.16596504 0.051470403 0.05978529 -0.0837585 0.04586667 4.5673684e-38 -0.05050555
0.07376171 -0.0014293268 -0.0014613958 0.009897577 0.08179802 -0.14727019 -0.105091795 -0.0028486869
0.07564968 -5.097168e-38 0.05523677 0.081023864 0.0929006 -0.0710945 0.06709461 -0.013521043
0.08245361 -0.044157565 -1.4791252e-18 -0.07581119 2.1229888e-38 -0.042195 -2.669604e-38 0.06334052
-0.010081137 -0.3673507 -0.001024717 -0.06892054 -0.012862174 0.107535355 0.05412661 -0.07599873
-0.052712847 -0.08277724 0.032313365 -2.4180476e-38 -0.0856764 -2.2167477e-38 0.008868084 0.0028399155
1.8134231e-38 0.053985234 0.16347846 0.083099835 -0.0019072801 -0.037852626 -2.9228295e-38 -0.077081785
0.071574576 0.16877304 0.015046302 -0.029599274 2.401302e-38 -0.03658782 -0.10212638 -0.073254526
-0.0053875963 0.13356146 0.0051986314 0.06933623 -0.059740786 0.0041334815 0.12244643 -2.874964e-38
0.028609192 0.004559444 0.011184307 0.024712179 -0.10565746 0.00016013105 0.09400954 0.03752757
1.8175318e-20 -0.11985054 -3.164345e-39 -0.057354372 2.2096568e-38 0.018051496 0.045922574 0.08479252
00000000: 2822 9e81 a91f d23d f01b 0d3e 10ea ba3c
00000010: 8e23 fdbd 93d2 94bd a2b6 9780 b21f a63e
00000020: a110 8b3c c871 9a3c 640a fb3c bf74 4b3d
00000030: 00b3 d100 a7f5 693d f1da 7a3d aef8 55bd
00000040: f349 9fbb 3b18 213e 2b1f b43c 31ba 2a3c
00000050: ca46 7c3d f066 9539 164f 423c d03d 1080
00000060: 286c 4b3d a90c 3c3c a355 213d 3503 12bc
00000070: 0a10 aa3d 2910 e2ba edd6 79bd 87e7 823c
00000080: 0dd2 191f 53a8 94bd 7aa3 9500 479f 24be
00000090: f92c e800 6342 113e e9fc ee3c 0d85 9fbb
000000a0: 9ed5 083b bf72 53bd 0f71 88bc 9a79 2d3e
000000b0: 3750 88bd 4340 00bd 5537 13bd dfab 22be
000000c0: cba5 1bbc 6f6e 0401 19f3 11be 96fb 1981
000000d0: 9490 203d 7e91 713d dcc1 8880 330c b13b
000000e0: 0221 5d3c 3674 98bd 25af 133e 38dd 323c
000000f0: aad1 1a01 aa83 353d bcf7 ccbd 62c1 3abd
00000100: 9385 413d 93a5 bd3c 85ea 5181 ec6a e43c
00000110: 2cd6 d53d 130e 333d 5e5e 8c3b 389e 453d
00000120: 4ba0 883c 50ca 8b3c 4224 14bd 4560 483d
00000130: 3741 c7bc be55 8c81 9481 14bd d6dd c53d
00000140: 0bf0 433d ff5d 073d f456 9e3d 5d26 443d
00000150: 2c66 193d 84a2 a8bd 55d0 3da1 6011 063d
00000160: 047b 4301 bad3 003d cada d080 ba36 82bc
00000170: 5823 78bc d215 54bd ed0b 0aba cb85 6c3d
00000180: 2e55 d6bc ff45 d83a 72f6 433d d9f3 a4bd
00000190: 95f3 613d 094e 3d3e 6530 3ebd d624 0f81
000001a0: c4c8 153d 4298 a201 2ffe f0bc 83ec ee3c
000001b0: a400 0c80 9f40 ee3b 6a9b 303e 909d 22be
000001c0: 55be 5a3d a98e 25bd 6292 0a80 f00a 90bd
000001d0: 08d5 58bd a547 993d 49a3 2cbe b62e 28bd
000001e0: 3284 6e01 56d1 23bd 9195 4fbd 867d 323d
000001f0: 36cc 9dbb 3762 ec3d 5c02 ab3d bbd4 ebbe
00000200: 187a 82bd 0539 8a3d 74fa 643c 7ac7 7e01
00000210: e0c5 dd3c 1c00 cebc 5552 db3d 66ad 2a3d
00000220: 0053 a0bc 8111 59bd 0799 3cbd c3c1 0f3d
00000230: 71f2 ff20 3b83 c13c fb6b da80 970f 0f3d
00000240: ce61 f900 5106 f83d 2a27 2a3d ac81 0fbe
00000250: 2b57 c53a 03e8 e6bd e9ef ea3b 8949 1f3e
00000260: 27ef 013e 73e0 a3bd 50b6 be3c 3927 94bd
00000270: 7ed6 17bd 73ab f500 1f19 babb baad 4200
00000280: a24e 1fbd 545f 0b3c 0419 0501 347a 8e3c
00000290: 5a52 8a3c 6266 a3bc 7852 4f3e 1843 193e
000002a0: 2819 e680 bdf2 29be a1d2 523d 6ce1 743d
000002b0: 9489 abbd b0de 3b3d d3ab 7801 e8de 4ebd
000002c0: 6110 973d 4058 bbba 4e8c bfba 7229 223c
000002d0: b885 a73d ffcd 16be 5e3a d7bd 09b1 3abb
000002e0: 38ee 9a3d 14c2 8a81 f43f 623d d7ef a53d
000002f0: ab42 be3d fe99 91bd e668 893d 5d87 5dbc
00000300: 70dd a83d 90de 34bd c547 daa1 e642 9bbd
00000310: 4a2c e700 aad4 2cbd d958 1181 adb8 813d
00000320: 5a2b 25bc 6415 bcbe cc4f 86ba 3626 8dbd
00000330: debb 52bc 7f3b dc3d ddb3 5d3d 39a5 9bbd
00000340: 6de9 57bd 1d87 a9bd 055b 043d aaa6 0381
00000350: 1c77 afbd e861 f180 714b 113c e01d 3a3b
00000360: dc76 c500 9f1f 5d3d e666 273e 3f30 aa3d
00000370: b3fd f9ba 5b0b 1bbd 4c22 1f81 0edd 9dbd
00000380: b195 923d d7d2 2c3e c484 763c 2d7a f2bc
00000390: 44bd 0201 1cdd 15bd a327 d1bd 7806 96bd
000003a0: 6f8a b0bb 56c4 083e 4859 aa3b 2700 8e3d
000003b0: c1b2 74bd 2872 873b 32c5 fa3d 2687 1c81
000003c0: d35d ea3c 6367 953b 623e 373c 3271 ca3c
000003d0: f062 d8bd dae8 2739 1388 c03d 82b6 193d
000003e0: 39a9 ab1e 3374 f5bd e874 2280 6bec 6abd
000003f0: 3e9c f000 bbe0 933c 4f19 3c3d b3a7 ad3d

bias f4 [54]
-0.10714497 0.031121371 -0.07980108 -0.10175697 -0.12715589 -0.5379867 3.7446966e-38 0.0011727323
0.6006396 2.0669281e-38 0.07392025 0.46831858 1.1242846e-38 0.25257057 0.07812801 1.4791836e-38
0.6921662 5.370085e-38 0.17822659 0.8215523 0.13331676 -0.2609028 -0.060741242 0.0026493776
0.14956716 0.049470033 -0.6580591 0.53519005 0.092396274 -0.06915623 -5.352367e-05 0.0501644
-0.14019771 -0.05042283 -0.41408768 -0.002467209 0.08667828 -4.0281357e-05 0.61884475 -3.9205368e-08
-2.8594235e-20 -0.0012078056 -0.0031232205 0.5994651 -0.002769489 0.4302792 0.1340703 0.11842734
-3.5026165e-10 -0.08479614 0.14361036 -5.454582e-15 0.2518271 0.30784178
00000000: d26e dbbd 3ff2 fe3c c06e a3bd f565 d0bd
00000010: 2735 02be 7fb9 09bf 74e1 4b01 5eb6 993a
00000020: 84c3 193f 8c11 e100 8063 973d 74c7 ef3e
00000030: 7b6c 7a00 ee50 813e 9401 a03d 9f11 a100
00000040: ce31 313f 0830 9201 0881 363e 4051 523f
00000050: 3084 083e 0d95 85be cfcb 78bd 2ea1 2d3b
00000060: 2228 193e 17a1 4a3d 9076 28bf 3702 093f
00000070: 423a bd3d c8a1 8dbd 9a7e 60b8 3079 4d3d
00000080: fd8f 0fbe 2b88 4ebd 4d03 d4be e6b0 21bb
00000090: 6284 b13d c7f3 28b8 9c6c 1e3f c262 28b3
000000a0: 4f08 079f 3b4f 9eba f2ae 4cbb 8b76 193f
000000b0: 5180 35bb 8e4d dc3e ba49 093e 098a f23d
000000c0: f28e c0af 99a9 adbd 980e 133e a485 c4a7
000000d0: 7bef 803e 709d 9d3e

weight f4 [2, 54]
-0.17085485 0.08062452 -0.18668838 -0.0018538709 -0.098495685 0.024711827 0.00031270605 -0.33306584
-0.24951892 3.748711e-05 0.03689781 0.41347528 -9.0771886e-05 0.061858125 0.57801116 8.240342e-06
-0.2876916 -2.5111783e-12 -0.2719641 -0.34772712 -0.32432526 -0.049464315 0.08777071 -0.30310127
-0.29190797 -0.394323 -0.32288247 0.32732937 0.09016528 0.015875377 -0.00012614005 0.07188942
0.06672256 0.031597957 -0.37232813 -0.0032070596 0.056248803 -0.00047412008 0.30653664 -1.7390929e-10
-0.0001451538 -0.0011344079 0.00084068737 -0.31836998 0.002702453 0.35855198 0.2669419 0.4322042
-0.0023627528 0.17459956 -0.39813566 0.00026501066 -0.28522566 0.27792624 0.0032360686 0.00748406
-0.029239612 -0.12575467 -0.016339911 -0.23135863 0.00035142736 0.27610463 -0.025210883 -3.2790497e-06
0.039607286 -0.18340504 -1.2894395e-06 -0.40079135 -0.1949235 -9.19303e-09 -0.1753019 -2.1919487e-35
-0.17953062 -0.00037361344 0.020106327 -0.08875813 0.08402027 0.10738441 -0.2886822 -0.4170311
-0.038331594 -0.27009326 -0.32637423 0.09343567 3.473771e-06 0.10966078 -0.057796966 -0.3983703
-0.01104445 0.003002255 -0.014382832 0.0005275243 -0.18863611 -3.073714e-07 0.000948345 0.001624969
0.0016240984 -0.02911443 0.0015328401 -0.23560236 -0.35404858 -0.036280233 -0.0013683676 0.06419775
-0.029697882 0.00032628627 0.009468924 -0.27807656
00000000: 93f4 2ebe 781e a53d 3d2b 3fbe 96fd f2ba
00000010: 1bb8 c9bd 7570 ca3c b2f2 a339 9b87 aabe
00000020: e381 7fbe 7a3b 1d38 2822 173d 08b3 d33e
00000030: c95c beb8 f25e 7d3d 8af8 133f 0040 0a37
00000040: 504c 93be 5eb5 30ac e13e 8bbe 4a09 b2be
00000050: f60d a6be 189b 4abd 21c1 b33d 1730 9bbe
00000060: f674 95be b4e4 c9be da50 a5be b797 a73e
00000070: 93a8 b83d 140d 823c 7644 04b9 c33a 933d
00000080: d6a5 883d dc6c 013d cba1 bebe 882d 52bb
00000090: 2565 663d 5293 f8b9 5ff2 9c3e 1d37 3faf
000000a0: 6d34 18b9 6ab0 94ba 9361 5c3a 6401 a3be
000000b0: a31b 313b 2094 b73e 9cac 883e de49 dd3e
000000c0: 6ad8 1abb 3aca 323e 70d8 cbbe 21f1 8a39
000000d0: 1909 92be 594c 8e3e 3914 543b d83c f53b
000000e0: e987 efbc d5c5 00be 47db 85bc 47e9 6cbe
000000f0: c83f b839 965d 8d3e 0e87 cebc a50d 5cb6
00000100: 403b 223d 88ce 3bbe ce10 adb5 8634 cdbe
00000110: 079a 47be 60ef 1db2 5782 33be 8516 e985
00000120: e0d6 37be 8ce1 c3b9 06b6 a43c d3c6 b5bd
00000130: d212 ac3d 5cec db3d 27ce 93be 1a85 d5be
00000140: 9701 1dbd aa49 8abe 861a a7be 335b bf3d
00000150: ee1e 6936 d595 e03d 83bc 6cbd 31f7 cbbe
00000160: c8f3 34bc 7bc1 443b f8a5 6bbc 8e49 0a3a
00000170: d329 41be ce04 a5b4 5b9a 783a e9fc d43a
00000180: b3df d43a 6381 eebc 94e9 c83a bf41 71be
00000190: db45 b5be 959a 14bd cc5a b3ba 1c7a 833d
000001a0: f948 f3bc 6711 ab39 8c23 1b3c 0d60 8ebe

bias f4 [2]
-0.01573722 -0.11353372
00000000: 58eb 80bc 5e84 e8bd
