Predict/RobustScaler_and_net/rms_radius/Diagonal_RobustScaler_epoch_100_batchsize_32_L1Loss()_lr_0.0001_weightdecay_0.0001.pt (torch, 16663 bytes, 5 tensors)

weight f4 [54, 6]
0	0x35eb3171	1.7523254e-06
1	0xb9801bd5	-0.000244348
2	0xb9ba29ff	-0.00035507974
3	0x00782854	1.1034727e-38
4	0x001b4584	2.504496e-39
5	0x00312c9b	4.515941e-39
6	0x3cf30787	0.029666675
7	0xbd6379ee	-0.055536203
8	0x3c90e69c	0.017688088
9	0xbcdbbeb0	-0.026824325
10	0xbcd8b888	-0.026455179
11	0x3b922003	0.0044593825
12	0x3d31e535	0.04343148
13	0x3ca6d4c3	0.020365125
14	0x3c743cf7	0.014907113
15	0xbdc1b43e	-0.094582066
16	0xbe407fb9	-0.18798722
17	0xbe5ce1df	-0.21570538
18	0xbee82cb7	-0.45346615
19	0x3d807169	0.06271631
20	0x3d6e0612	0.058111258
21	0xbe39ba87	-0.18137561
22	0x3cd2dc86	0.02573992
23	0x3cd13dee	0.025542226
24	0x3df9f41d	0.12204764
25	0xbe10e22b	-0.14148776
26	0xbe06b1c5	-0.13153751
27	0xb7b5dbe8	-2.1679283e-05
28	0xbc6f34a7	-0.014599956
29	0x3adda025	0.0016908689
30	0xbd1a444a	-0.03766278
31	0x3e3630be	0.17792031
32	0xbc02053d	-0.007935819
33	0xbe3f34a2	-0.18672422
34	0xbd618b5b	-0.05506454
35	0x3daa0df7	0.08303445
36	0x8167ac6a	-4.25517e-38
37	0x8135b3c8	-3.3373436e-38
38	0x804aef69	-6.881711e-39
39	0x80611f61	-8.9193e-39
40	0x009832d2	1.3977226e-38
41	0x810f1e28	-2.6286588e-38
42	0xbddde0fd	-0.10833929
43	0xbe3c5af2	-0.18394068
44	0x3dcbe29e	0.09955333
45	0x3bee4eed	0.0072725923
46	0xbcb82f23	-0.022483414
47	0x39adc1c8	0.0003314151
48	0xbd6f29ad	-0.058389354
49	0x3e02157e	0.12703511
50	0x3d659402	0.056049354
51	0x3d682f03	0.05668546
52	0x3d3e30a2	0.0464331
53	0x3c943663	0.01809234
54	0x3df36442	0.11884357
55	0xbddcda4d	-0.10783825
56	0xbda5cd46	-0.080957934
57	0xbabb6073	-0.0014295712
58	0xbd8e8f07	-0.06960874
59	0xbca9922f	-0.020699589
60	0x3d666c80	0.056255817
61	0xbe021560	-0.12703466
62	0x3d00b9b3	0.031427097
63	0x3c3dd63f	0.011586725
64	0xbc3dd4e1	-0.011586399
65	0x3ceaa153	0.028641379
66	0xbcc9376a	-0.024562556
67	0x3d8a31d5	0.06747786
68	0x3e7963c4	0.24354464
69	0x3ea95432	0.33072048
70	0x3d0ef9a2	0.034906037
71	0xbdcc37b8	-0.09971565
72	0xaa30e609	-1.571175e-13
73	0xb63d2727	-2.8185984e-06
74	0xb72b6bdf	-1.021751e-05
75	0x00ffcbd2	2.3491168e-38
76	0x01681a7d	4.2630675e-38
77	0x81822a02	-4.7814736e-38
78	0x3c86da9d	0.016461665
79	0x3ca5236f	0.020158498
80	0x3c4af84e	0.012388302
81	0xbcacd0e7	-0.021095706
82	0xbd9b3f3d	-0.07580421
83	0xbda9ea8f	-0.082966916
84	0xbafc79e3	-0.0019262399
85	0xbb196675	-0.0023407016
86	0xbb5abe69	-0.0033377653
87	0x81b074f5	-6.4820014e-38
88	0x80df6875	-2.0516788e-38
89	0x80de2cf8	-2.0403612e-38
90	0xa89149b9	-1.6130206e-14
91	0xb8c2ef2d	-9.295191e-05
92	0xb8f654a7	-0.00011745962
93	0x075456d2	1.5974622e-34
94	0x09047faa	1.594895e-33
95	0x090ec786	1.7186444e-33
96	0xba726945	-0.0009247254
97	0xbac147b2	-0.0014746098
98	0xb9d8a8f0	-0.000413246
99	0xad0af9b1	-7.899834e-12
100	0xa39da060	-1.7089896e-17
101	0x9f9e0286	-6.691978e-20
102	0xbf13fdef	-0.57809347
103	0x3c7f9908	0.01560045
104	0x3c3c6f87	0.0115012
105	0xbcaa0eb3	-0.020758962
106	0x3b8b0493	0.0042424886
107	0x3ba20eb7	0.004945602
108	0x3e7db681	0.24776651
109	0x3b38fb6b	0.0028226029
110	0x3b1e4231	0.002414834
111	0xbd65c649	-0.056097303
112	0xbd3ec3c3	-0.04657341
113	0xbe2fe0e3	-0.17175631
114	0x3e1a4703	0.15066151
115	0xbe1aef06	-0.15130243
116	0x39c7081a	0.00037962274
117	0x3b95ba34	0.0045693163
118	0xbd2c5212	-0.042070456
119	0x3ce8a815	0.02840046
120	0x3dbcafcc	0.09213218
121	0xbea40f3e	-0.3204288
122	0x3ccdfb13	0.025144136
123	0x3baf377c	0.0053471904
124	0x3cea1e4a	0.028578896
125	0x3bc3a83d	0.0059709833
126	0x3dd6a264	0.10480192
127	0x3d8346e2	0.06410004
128	0xbd3d7a0c	-0.04625897
129	0x3bbeb63d	0.0058200643
130	0x3baf705a	0.0053539695
131	0x3d30fb34	0.043208316
132	0x3e1675d1	0.14693381
133	0x3d7cdef3	0.06173606
134	0xbecb26c3	-0.3967801
135	0x3c344c5b	0.011004533
136	0x3b9e6162	0.0048333863
137	0x3e313c86	0.17308244
138	0x006ef455	1.0189554e-38
139	0x8024cea3	-3.380205e-39
140	0x943b3a35	-9.452567e-27
141	0x01b7edea	6.7564973e-38
142	0x0146e6f4	3.6532557e-38
143	0x810a0f88	-2.535774e-38
144	0x3e19fb77	0.15037332
145	0x3b0e1648	0.002168076
146	0x3ae607dd	0.0017549951
147	0xbdf7b9f9	-0.12096018
148	0xbca5e4b8	-0.020250663
149	0xbe33509e	-0.17511222
150	0x3e19a173	0.15002994
151	0x3e2aad1a	0.16667596
152	0x3de1c918	0.11024684
153	0x3d4a5e7b	0.04940651
154	0x3c0db98c	0.008650195
155	0xbd46be27	-0.048521187
156	0x3e5edfa7	0.21765004
157	0xbd23da42	-0.04000307
158	0xbd8c2d3d	-0.06844566
159	0x3bb7a7f8	0.00560474
160	0x3b1b443d	0.0023691796
161	0x3db33baf	0.08751618
162	0x3de88630	0.11353719
163	0xbe4b348f	-0.19844268
164	0xbe0de6a8	-0.1385752
165	0x38ec04ba	0.00011254237
166	0xbbf7883b	-0.0075540817
167	0xbbb92748	-0.0056504346
168	0x3df0ea68	0.117634594
169	0xbef86751	-0.48516324
170	0x3cc93523	0.02456147
171	0x3b1029d3	0.0021997585
172	0xbc06e0ef	-0.008232339
173	0xbb307740	-0.0026926547
174	0x3d9f96ed	0.07792459
175	0xbe4143c8	-0.18873513
176	0x3c686a3d	0.014185485
177	0x3c2251d5	0.009907206
178	0x3cc9e15a	0.024643589
179	0x3c4aa462	0.0123682935
180	0xbd52c4b6	-0.05145713
181	0x3afc8e74	0.0019268529
182	0x3d6e9472	0.058247037
183	0xbe150faf	-0.14556764
184	0xbca683cb	-0.020326516
185	0xbc7c3f59	-0.015395963
186	0xa3282634	-9.115388e-18
187	0x06def030	8.386004e-35
188	0xa067d22c	-1.9636001e-19
189	0x80aa9f6f	-1.5669228e-38
190	0x0110dcec	2.6607127e-38
191	0x801ea0e6	-2.812784e-39
192	0x807169c9	-1.041536e-38
193	0x807e4cb8	-1.1598794e-38
194	0x002e5b1f	4.257121e-39
195	0x01703ca8	4.4124557e-38
196	0x811472c0	-2.7265636e-38
197	0x0168aaf8	4.2734334e-38
198	0x3d9ed994	0.077563435
199	0xbf2b5dba	-0.6693989
200	0x3cbc18aa	0.02296098
201	0xbb0886ba	-0.0020832256
202	0x397c1b07	0.00024042661
203	0xbaa1b8fa	-0.0012338453
204	0x009d1248	1.4424731e-38
205	0x8107d28a	-2.4946638e-38
206	0x813864e6	-3.3867854e-38
207	0x0061cc00	8.981225e-39
208	0x014bf9ea	3.7464516e-38
209	0x80631ba8	-9.101635e-39
210	0x3cf688be	0.0300945
211	0xbcc3e0f0	-0.02391097
212	0x3d347733	0.04405899
213	0x3c9d2b0d	0.019185567
214	0x3d42fe6b	0.047605913
215	0xbdbea453	-0.09308686
216	0xbc97dcc3	-0.018537885
217	0xbca15e13	-0.019698178
218	0x3d6075ac	0.05479972
219	0xbd229c88	-0.03970006
220	0x3c8885aa	0.016665298
221	0x391a763e	0.00014730633
222	0xbdb00eea	-0.08596595
223	0x3de2fe96	0.11083715
224	0xbc0e20a6	-0.008674776
225	0xbd1e1749	-0.038596425
226	0xbb53f0d5	-0.0032339592
227	0xbb6f7765	-0.003653967
228	0xbd226023	-0.039642464
229	0x3c1608b4	0.009157348
230	0x3ddbbf79	0.1072988
231	0xbda8cca8	-0.0824216
232	0x3cc4a64d	0.02400508
233	0xbc823bad	-0.015897596
234	0xbb2e6cf2	-0.002661523
235	0xbc401e04	-0.011725906
236	0xbc1ea60c	-0.009683143
237	0xbe1b245b	-0.15150587
238	0x3dbaba37	0.09117549
239	0x3e0f6f74	0.1400736
240	0xbab106c6	-0.0013506047
241	0xbae3877b	-0.0017359102
242	0xba9462ef	-0.0011320988
243	0x00bba411	1.7232094e-38
244	0x0025bec8	3.466353e-39
245	0x80c5aa55	-1.8152696e-38
246	0x3dcd041f	0.10010552
247	0xbe03c6d5	-0.12868817
248	0xbe3329f3	-0.17496471
249	0x3b31bb5a	0.0027119727
250	0xb984a2ad	-0.00025298205
251	0x3c938d29	0.018011646
252	0xbd6f7da5	-0.058469433
253	0xbc1d0f07	-0.009586102
254	0x3e45b7b9	0.19308366
255	0xbe266692	-0.16250065

bias f4 [54]
0	0x9263c8e0	-7.187617e-28
1	0x3e75ac6c	0.23991555
2	0xbf80b5af	-1.0055445
3	0x3ed5c67a	0.41752988
4	0xbded2fe9	-0.11581404
5	0x3e00deab	0.12584941
6	0x81a34976	-5.9982155e-38
7	0x3ccc7395	0.024957458
8	0x3eac1e7a	0.33617002
9	0xbda50072	-0.080567256
10	0x3e81513e	0.25257295
11	0xbef5c2e9	-0.48000267
12	0x00d1a0d6	1.9251316e-38
13	0xbf08f202	-0.53494275
14	0xb70893b8	-8.140625e-06
15	0x07f03c4a	3.6146621e-34
16	0x382977b2	4.0404215e-05
17	0x3e401061	0.18756248
18	0xbf2fc628	-0.6866174
19	0xbd0b5eab	-0.03402583
20	0x3e3699fb	0.17832176
21	0x3e5b738d	0.21430798
22	0x3ec6f9e1	0.38862517
23	0x0186413e	4.9317444e-38
24	0xbf140033	-0.57812804
25	0xbec6ff6b	-0.38866743
26	0xbe1849ed	-0.1487195
27	0xbdd8ed27	-0.10592108
28	0xbcda4957	-0.0266463
29	0x3e3f2898	0.18667829
30	0x3cbf2b08	0.023335949
31	0x0190858c	5.3088876e-38
32	0x81aa9b46	-6.2670944e-38
33	0xbe0ac614	-0.13552123
34	0x817dbd78	-4.6604698e-38
35	0xbdeeee06	-0.11666493
36	0xbe877ebf	-0.26463887
37	0x3e90d799	0.28289488
38	0x3e8f0590	0.2793393
39	0x3f218b16	0.63102853
40	0xb07ee038	-9.2723296e-10
41	0x3d19fa3c	0.037592158
42	0x3e256d12	0.16154888
43	0xbd51f3cc	-0.051257893
44	0xbf019207	-0.50613445
45	0x3cb059c8	0.021527186
46	0x3e3712a7	0.17878209
47	0x3e87c8fb	0.26520523
48	0x3e430300	0.19044113
49	0x00fb449e	2.3075325e-38
50	0x818960e6	-5.0464894e-38
51	0xbac4f622	-0.0015026967
52	0xbe7b7f5d	-0.24560304
53	0x3d8710cb	0.06595

weight f4 [54, 54]
0	0x010df567	2.6073677e-38
1	0xbb2976c7	-0.002585815
2	0xbe04ea19	-0.12979926
3	0xbdb97d4c	-0.090571016
4	0x3b451d18	0.0030077156
5	0xbd4bcad1	-0.049753968
6	0x00eca674	2.1732889e-38
7	0x3d8d1b39	0.06889958
8	0x3d8d35a3	0.06894996
9	0x3d062112	0.032746382
10	0x3ca584e0	0.020204961
11	0x3d1eccea	0.03876964
12	0x010fba1a	2.6398473e-38
13	0x3ca8c044	0.020599492
14	0xb99c9510	-0.000298657
15	0x092bac92	2.0664518e-33
16	0xb954b1e3	-0.00020284163
17	0x3d078ccd	0.033093262
18	0xbe0f178d	-0.13973828
19	0x3df9b9e3	0.12193658
20	0xbd4efcd2	-0.050534077
21	0x3c9aec02	0.018911365
22	0x3b5beae2	0.003355675
23	0x00de3d08	2.0409374e-38
24	0xbe172255	-0.1475919
25	0x3ba0ba94	0.0049050543
26	0x3c1c8f29	0.009555616
27	0x3b26a01e	0.0025425027
28	0x3cc44f77	0.023963673
29	0x3c3045b6	0.010758808
30	0xbd973014	-0.07382217
31	0x0141ba04	3.558196e-38
32	0x01704346	4.4129304e-38
33	0x3c097dd1	0.008391813
34	0x81bb5cbc	-6.882602e-38
35	0xbd84ff9f	-0.06494068
36	0xbd6f519b	-0.058427434
37	0x3e1358fe	0.14389417
38	0x3de88ec8	0.11355358
39	0xbdd2f080	-0.10299778
40	0x3795e654	1.7869439e-05
41	0xbb8df821	-0.004332558
42	0xbac27a92	-0.0014837554
43	0xbc0b82e9	-0.008515098
44	0xbddc1ce2	-0.107476965
45	0x3d740ab2	0.059580512
46	0x3c295a5d	0.010336486
47	0xbd19b6a8	-0.03752771
48	0xbbc036cb	-0.005865907
49	0x01117b18	2.672061e-38
50	0x0063458e	9.116666e-39
51	0x3924ed76	0.0001572872
52	0xbd47cff9	-0.048782323
53	0x3d542592	0.051793642
54	0xa4fa2b83	-1.0849393e-16
55	0xbd3fee6b	-0.046858232
56	0x3d72166c	0.059103414
57	0xbdeb6f7f	-0.114958756
58	0x3c9b57e4	0.018962808
59	0xbd4ad946	-0.049523614
60	0x8062c74c	-9.071373e-39
61	0xbc10a89e	-0.008829264
62	0xbdc0d388	-0.094153464
63	0x3c404d5f	0.011737197
64	0xbd15fec1	-0.036619905
65	0x3d683960	0.056695342
66	0x15986a16	6.1559685e-26
67	0x39db0f04	0.00041782123
68	0x3af8e29a	0.0018988431
69	0x2abcf594	3.3565913e-13
70	0x397899ec	0.00023708463
71	0xbe8ef7c8	-0.27923417
72	0x3e2f2200	0.17102814
73	0xbd0d60ce	-0.03451615
74	0x3bb8d25b	0.0056403107
75	0x3de07c1c	0.10961172
76	0x3d76916c	0.06019728
77	0x8144f390	-3.6174262e-38
78	0x3d1db6d6	0.038504444
79	0x3e0640dc	0.1311068
80	0x3d9024bf	0.07038259
81	0x3cc494f9	0.023996817
82	0x3cc39906	0.023876678
83	0xbc5618b4	-0.013067413
84	0xbb8ddf5c	-0.004329605
85	0x80d00d59	-1.9106571e-38
86	0x819c43a4	-5.740241e-38
87	0x3d1bd603	0.038045894
88	0x813f8fd2	-3.5184346e-38
89	0x3d8822e7	0.06647282
90	0xbc0451a2	-0.008076103
91	0xbd5ed52a	-0.054402508
92	0x3d3d2ddf	0.046186324
93	0x3d258ba5	0.04041638
94	0xbaa14573	-0.0012304023
95	0x3cd03814	0.025417365
96	0xbd6a38e8	-0.057183176
97	0xbc0bf34a	-0.008541891
98	0x3d8f4c26	0.06996946
99	0xbdb53fb8	-0.08850044
100	0x3b4dcac0	0.0031401366
101	0x3e21942a	0.15779176
102	0xbd7da84e	-0.061928086
103	0x810f33db	-2.6302156e-38
104	0x80cd005c	-1.8826406e-38
105	0x3ab9e79d	0.0014183406
106	0x3c165c44	0.009177271
107	0xb9a345e5	-0.00031141858
108	0x86741dcc	-4.591319e-35
109	0x3dcd6e1b	0.100307666
110	0xbd8ec848	-0.06971794
111	0x3e9ab9e8	0.3021996
112	0xbce5a178	-0.028031096
113	0x3cb153ad	0.021646345
114	0x81a24ef2	-5.962268e-38
115	0x3cec3e7c	0.028838389
116	0x3c15486a	0.009111503
117	0x3d4d113e	0.05006527
118	0x3d411ba8	0.047145516
119	0xbdf0e1aa	-0.11761792
120	0x148d01e9	1.4238115e-26
121	0xbdc03b0f	-0.093862645
122	0xba0b0d7c	-0.00053044385
123	0x0822aab3	4.8950758e-34
124	0xb9cd8b27	-0.00039204324
125	0x3d90a612	0.070629254
126	0xbe24c801	-0.1609192
127	0xbd084d66	-0.033276938
128	0x3ac1d7cf	0.0014789047
129	0x3dbca4ff	0.09211158
130	0x3e470eac	0.1943919
131	0x007ca0f4	1.144534e-38
132	0xbe19b6d0	-0.15011144
133	0xbd91dae1	-0.07121826
134	0x3d6cab38	0.057780474
135	0x3c8d7f37	0.017272575
136	0xbc78fed1	-0.015197472
137	0xbcfb84dd	-0.030703003
138	0xbd39b9d1	-0.045343224
139	0x8082e2bd	-1.2019953e-38
140	0x8027f9f8	-3.671256e-39
141	0x3cce84a4	0.025209732
142	0x016505c2	4.2064788e-38
143	0xbc9bc2d3	-0.019013798
144	0x3a816038	0.0009870594
145	0xbb394ee2	-0.0028275778
146	0x3dbd48b8	0.092423856
147	0x3d4e903c	0.05043052
148	0x3823adca	3.9024082e-05
149	0x3da2430e	0.07922946
150	0x3dd42fac	0.10360655
151	0x3d75cfc1	0.060012583
152	0x3ce851ef	0.028359381
153	0xbdb5c7cd	-0.088759996
154	0x3d9d65d3	0.07685437
155	0x3d5e8f26	0.054335736
156	0xbc26978b	-0.010167967
157	0x0100681b	2.358458e-38
158	0x00d1c810	1.9265388e-38
159	0xb9e270d1	-0.00043190134
160	0x3e4a0926	0.19730052
161	0x3d038b78	0.03211543
162	0x017a8c80	4.6018552e-38
163	0x8bde65a4	-8.566422e-32
164	0xa857d265	-1.19805196e-14
165	0xaa72294a	-2.1508243e-13
166	0x0125b093	3.04324e-38
167	0xb6da43d2	-6.5048016e-06
168	0x81a7ba7c	-6.1613703e-38
169	0x01299d94	3.1153454e-38
170	0xb6e6f9a4	-6.883596e-06
171	0x0043fd4f	6.243848e-39
172	0x9e21de2f	-8.5692155e-21
173	0xb85ed4da	-5.3127158e-05
174	0x81589520	-3.9779926e-38
175	0xa544fd89	-1.7086191e-16
176	0x01918db4	5.346792e-38
177	0x81a10ac0	-5.9157485e-38
178	0x010cd218	2.5864674e-38
179	0x817ced92	-4.6455538e-38
180	0xb66e3b54	-3.5499297e-06
181	0xaa8b076e	-2.4696515e-13
182	0x1a8d3b8d	5.841244e-23
183	0xb3a3548c	-7.605658e-08
184	0xab387645	-6.5534064e-13
185	0x011eec00	2.9189338e-38
186	0xb2f8a7b0	-2.8947255e-08
187	0xb8f3b0d2	-0.00011620078
188	0xb0848c6a	-9.644172e-10
189	0x809fb648	-1.4667234e-38
190	0x1ab02c64	7.286361e-23
191	0x93175245	-1.9099441e-27
192	0xac5bb143	-3.1220172e-12
193	0x810eb768	-2.6212868e-38
194	0x012c76a8	3.1676542e-38
195	0x8183691c	-4.8272625e-38
196	0x80069c00	-6.06975e-40
197	0xab499d4d	-7.1627844e-13
198	0xa1c129dc	-1.3089269e-18
199	0xb20a1c36	-8.039072e-09
200	0xb54b6272	-7.576665e-07
201	0x819b97eb	-5.7156e-38
202	0x015be780	4.039004e-38
203	0x010ce48e	2.587792e-38
204	0xb71ca4ca	-9.3366925e-06
205	0xa94d385d	-4.556803e-14
206	0xb8fd3256	-0.00012073356
207	0xa858dfae	-1.20389115e-14
208	0x1a96c5ac	6.23579e-23
209	0x9e40abe2	-1.019994e-20
210	0xb57749d5	-9.212211e-07
211	0x00182f00	2.220912e-39
212	0x001ca400	2.630226e-39
213	0x81122380	-2.6841435e-38
214	0x01345209	3.3119636e-38
215	0xa16eff3a	-8.0975326e-19
216	0x1937872e	9.4881776e-24
217	0x3d980967	0.07423668
218	0xbdbd2c50	-0.092369676
219	0x3d31959f	0.04335558
220	0xbd91ee3d	-0.071255185
221	0x3d9007ba	0.07032724
222	0x01097330	2.524557e-38
223	0xbdf25d2c	-0.118341774
224	0x3dc3502c	0.09536776
225	0x3b9337bb	0.0044927276
226	0x3e3008ab	0.17190807
227	0xbdc9d65c	-0.09855339
228	0x15604a58	4.5295087e-26
229	0xbd7f141d	-0.06227504
230	0xbac3b395	-0.0014930839
231	0x8999b89a	-3.700701e-33
232	0xb9efdccb	-0.00045750136
233	0x3d2eb393	0.042651724
234	0xbdacad5a	-0.08431502
235	0xba9f7896	-0.0012166675
236	0x3d60b74e	0.054862313
237	0x3d712cb9	0.05888054
238	0x3db54481	0.08850957
239	0x01475a3e	3.6615273e-38
240	0xbd8cdc4c	-0.06877956
241	0xbbd040e7	-0.006355393
242	0x3e23b5f4	0.15987378
243	0xbd38efc3	-0.04515053
244	0x3d5ddefb	0.05416773
245	0x3d286b7d	0.041118134
246	0x3dd775f7	0.10520547
247	0x003b92e4	5.470989e-39
248	0x019086bc	5.309058e-38
249	0xbc01279e	-0.007882981
250	0x8135df5f	-3.340471e-38
251	0xbdcc90ff	-0.09988593
252	0x3e002ae3	0.1251636
253	0xbd861432	-0.06546821
254	0xbd43dbcb	-0.047817033
255	0xbd3be4d9	-0.045872543

bias f4 [54]
0	0x3ea4fab7	0.3222253
1	0xbe396cb1	-0.18107869
2	0x3f041332	0.5159179
3	0xa4df30e3	-9.679365e-17
4	0x3ed8d06e	0.4234652
5	0x81557d9d	-3.9212044e-38
6	0x01b3c3f2	6.6035383e-38
7	0xaddb8e8c	-2.4960721e-11
8	0xbd285fd6	-0.04110702
9	0xbeafdf55	-0.34350076
10	0x3f086b4b	0.53288716
11	0x3e829dec	0.2551111
12	0xba7afc88	-0.0009574373
13	0xb8b234a7	-8.497509e-05
14	0xbb307e1e	-0.002693064
15	0x00e10837	2.0665934e-38
16	0x3f060686	0.52353704
17	0x0dfd6d8f	1.5618704e-30
18	0x3eacd4f8	0.33756232
19	0x3f0c8841	0.54895407
20	0x3a065388	0.00051241415
21	0xbeb09565	-0.3448898
22	0x9b73e9f0	-2.0176078e-22
23	0x3e389957	0.18027245
24	0x00fed311	2.3401932e-38
25	0x3d316265	0.043306727
26	0xbdde2c89	-0.10848338
27	0x3e68a9ac	0.22720975
28	0xbd173720	-0.036917806
29	0x3dfd751e	0.12375854
30	0xbe2b3723	-0.16720252
31	0x0592cf1d	1.3805855e-35
32	0xba4f4038	-0.00079059927
33	0x0182eb23	4.809186e-38
34	0x3eef80ba	0.46777898
35	0xbeec05a8	-0.46098065
36	0x33311b82	4.1236042e-08
37	0xa22043d4	-2.1719951e-18
38	0xba85f875	-0.0010221141
39	0x00ae92a2	1.6031978e-38
40	0x99750479	-1.2667106e-23
41	0xbf2f6d3f	-0.6852607
42	0xa3bafe82	-2.0273949e-17
43	0x3ecfa7a9	0.40557602
44	0x3f198660	0.59970665
45	0x3e186f6c	0.14886254
46	0x3d63034b	0.055423062
47	0xbca416cd	-0.020030404
48	0xb9b87d8f	-0.00035188763
49	0xb4a521c0	-3.07582e-07
50	0x8ac982ac	-1.9404749e-32
51	0x3ed4d813	0.41571102
52	0x3b8aaf14	0.0042322967
53	0xaf02a4b4	-1.1881945e-10

weight f4 [1, 54]
0	0xbda1fa01	-0.079090126
1	0x3d87f6e5	0.06638888
2	0xbe26d3e0	-0.16291761
3	0xb90f892c	-0.00013688643
4	0xbdc5bac8	-0.09654766
5	0x00fb7dba	2.3095812e-38
6	0xbaec21e8	-0.0018015476
7	0xbb00a0f9	-0.0019627197
8	0xbd6513f1	-0.05592722
9	0xbd9dc7df	-0.07704138
10	0xbdc940a9	-0.09826786
11	0xbe0c6d9f	-0.13713692
12	0x3b163939	0.002292229
13	0x3a906b63	0.0011018332
14	0x3b038632	0.0020069
15	0xba8447a1	-0.0010092148
16	0xbde26b8a	-0.11055668
17	0x3a284169	0.0006418438
18	0x3e2508bb	0.16116612
19	0xbdd6fd3b	-0.10497519
20	0x382e369a	4.1535684e-05
21	0x3d82522c	0.06363329
22	0x361fddec	2.3822022e-06
23	0xbd1a6272	-0.03769154
24	0x3a418609	0.00073823385
25	0xbea70d56	-0.32627362
26	0xbe969c54	-0.29416144
27	0x3e209139	0.15680398
28	0xbe467c2a	-0.19383302
29	0xbe0c2bac	-0.13688534
30	0x3d7ff1ef	0.062486585
31	0xbafa1651	-0.0019080137
32	0xb8faba8c	-0.00011955676
33	0x90aaa3ee	-6.730575e-29
34	0xbd877407	-0.06613927
35	0x3d9789f5	0.0739936
36	0xb31a1415	-3.5874184e-08
37	0x1c2fb735	5.813943e-22
38	0xbaa79c54	-0.0012787678
39	0x383e732b	4.540679e-05
40	0x2da49cc5	1.8714261e-11
41	0x3dd0b489	0.10190684
42	0x1b0e8e46	1.1791936e-22
43	0xbd7a18af	-0.061058696
44	0xbe287db9	-0.1645421
45	0x3e091d03	0.13389973
46	0xbe27cc17	-0.16386448
47	0xbe0658ce	-0.13119814
48	0x3a3c3a98	0.0007180362
49	0xb80142db	-3.081826e-05
50	0x8d004906	-3.9530944e-31
51	0xbe026a5a	-0.12735882
52	0x3e60d1f9	0.21955098
53	0xb86cb0d8	-5.6431483e-05
