Predict/RobustScaler_and_net/rms_radius/off_Diagonal_RobustScaler_epoch_100_batchsize_32_L1Loss()_lr_0.0001_weightdecay_0.0001.pt (torch, 278103 bytes, 5 tensors)

weight f4 [252, 18]
0	0xbeafe724	-0.34356034
1	0x3e2e5406	0.1702424
2	0x3cbda5db	0.023150375
3	0x3e329eae	0.17443344
4	0x3e44eb2c	0.19230336
5	0xbef7a334	-0.48366702
6	0x3d02afdc	0.031905994
7	0xbef7b6bc	-0.48381603
8	0x3ea981d3	0.3310686
9	0x3f7a55cf	0.97787184
10	0x3f06eafe	0.5270232
11	0x3ea7e4ea	0.32791835
12	0x3e285034	0.16436845
13	0x3f3240ee	0.69630325
14	0x3deee39d	0.116645075
15	0x3ef1f46d	0.47256795
16	0x3e3985b1	0.18117405
17	0x3f2ec98f	0.68276304
18	0xbfc677fa	-1.5505364
19	0x3e5e2393	0.21693258
20	0x3db03131	0.086031325
21	0x3db66048	0.08905083
22	0xbfb12d04	-1.3841863
23	0x3dc13617	0.09434145
24	0x3dd95306	0.106115386
25	0x3da69248	0.0813337
26	0xbf264cac	-0.6496074
27	0x3eab450c	0.33451116
28	0xbd9b8f34	-0.07595673
29	0x3e5f77a9	0.2182299
30	0x3d8574e9	0.065164395
31	0x3e57c0cd	0.21069641
32	0x3d38e3a6	0.045138977
33	0xbe451d57	-0.19249474
34	0x3e187c32	0.14891127
35	0x3ccc1d20	0.024916232
36	0xbef37610	-0.47551012
37	0xbef3aa54	-0.47590888
38	0xbd84fdf8	-0.06493753
39	0xbedf18ab	-0.43573508
40	0x3eaf3dcf	0.34226844
41	0xbf1b30ae	-0.60621154
42	0xbd5b4089	-0.053528342
43	0xbf224189	-0.6338125
44	0x3ec0a2a2	0.3762408
45	0xbfdb05d7	-1.7111157
46	0xbe23b8ec	-0.15988511
47	0xbdcccfbc	-0.1000056
48	0x3ddb8a10	0.10719693
49	0xbc235dc3	-0.009971085
50	0x3c9a4486	0.018831503
51	0xbe56681f	-0.20938157
52	0xbe3246de	-0.17409846
53	0x3a9ee3b3	0.0012122303
54	0x3fcfae0b	1.6224989
55	0xbe36d84b	-0.17855947
56	0xbdd48b75	-0.10378162
57	0x3e647e5c	0.22313827
58	0x3f9df27a	1.2339623
59	0x3dee1a9f	0.11626171
60	0x3e3077b3	0.17233162
61	0xbdef016c	-0.11670193
62	0x3ee6b5c9	0.45060566
63	0xbf88ba42	-1.0681841
64	0x3f39e13e	0.7260932
65	0x3dd78522	0.1052344
66	0x3f3b69f4	0.73208547
67	0xbf7b1e7a	-0.9809338
68	0x3de97469	0.113991566
69	0x3de2e0dc	0.11078045
70	0x3e207a6e	0.15671703
71	0xbf026b9c	-0.5094545
72	0xbf81c0a5	-1.0136915
73	0xbd22940c	-0.03969197
74	0xbd243aff	-0.040095326
75	0x3e8a5374	0.27016795
76	0xbf6d1fe7	-0.92626804
77	0x3d1ff899	0.03905544
78	0x3b9986c5	0.0046852552
79	0xbc559e46	-0.013038224
80	0x3d27644b	0.04086713
81	0xbe02ac2a	-0.12760988
82	0xbe933f1e	-0.28759092
83	0x3e71cc52	0.23613098
84	0xbe85e43b	-0.2615069
85	0xbd508a8e	-0.050913386
86	0x3ea33509	0.318764
87	0x3ea0ba98	0.3139236
88	0x3e818182	0.2529412
89	0x3e5939fd	0.21213527
90	0x3e89bbf1	0.269012
91	0x3e84325e	0.25819677
92	0xbeeab632	-0.4584213
93	0xbe800003	-0.2500001
94	0xbe63df33	-0.22253112
95	0x3e2ed908	0.17074978
96	0xbdce5f5f	-0.10076784
97	0xbe565ef0	-0.20934653
98	0x3c76b9fc	0.015058991
99	0x3ebb1d1e	0.36545652
100	0x3dbf7309	0.09348113
101	0x3d7c12d2	0.061541386
102	0x3e76dca1	0.24107601
103	0x3e7804d6	0.24220595
104	0x3a4709ea	0.0007592725
105	0xbe6b03f8	-0.22950733
106	0x3c50d196	0.012745282
107	0xbd594b05	-0.05305006
108	0xbf82fa7c	-1.0232692
109	0x3e173045	0.14764507
110	0x3e5e15de	0.21688029
111	0x3e1fff97	0.15624844
112	0x3daae660	0.08344722
113	0xbf42c0de	-0.7607554
114	0x3e667070	0.22503829
115	0xbf43413a	-0.762714
116	0x3e5f047b	0.21779053
117	0x3dedfa0c	0.11619958
118	0x3f584b3e	0.8448981
119	0x3dcf03df	0.1010816
120	0x3f28ce96	0.65940225
121	0x3f1dcdf4	0.61642385
122	0x3e5e511c	0.21710628
123	0x3db50c31	0.08840216
124	0x3daa2b6b	0.083090626
125	0xbd1a43f7	-0.037662473
126	0xbfa5c34e	-1.2950227
127	0x3e8d5c65	0.27609554
128	0x3d2dd1ae	0.042436294
129	0x3e754a74	0.23954183
130	0xbfa7b2ec	-1.3101478
131	0x3e0727fe	0.1319885
132	0x3dced290	0.10098755
133	0x3db94bc2	0.09047653
134	0xbf1c9b3b	-0.6117436
135	0x3eaf0a83	0.34187707
136	0xbd1115b5	-0.035421092
137	0x3ddc4393	0.10755076
138	0x3e113d71	0.14183594
139	0x3e4e6927	0.201573
140	0x3dfa8060	0.12231517
141	0x3e1861ea	0.14881101
142	0xbc26e57a	-0.010186547
143	0x3eaa0f2c	0.332147
144	0x3e5c5500	0.215168
145	0x3d1ae899	0.03781948
146	0x3cc3d365	0.023904512
147	0xbb27ca5c	-0.0025602793
148	0x3d3d0b6b	0.046153467
149	0x3c60bdd6	0.013717135
150	0x3c95552e	0.018229093
151	0x3ce639b2	0.028103683
152	0x3d07057d	0.03296422
153	0xbeaa015a	-0.33204156
154	0xbec2361b	-0.37931904
155	0xbc9bd730	-0.019023508
156	0xbd8ef496	-0.06980245
157	0xbf62be52	-0.88571656
158	0xbcb02dd8	-0.021506235
159	0xbd684139	-0.056702826
160	0x3dfc3318	0.12314433
161	0xbe9f8500	-0.31156158
162	0x3dcf198a	0.10112293
163	0x3e920153	0.28516635
164	0xbee9813b	-0.45606408
165	0xbebb8ff7	-0.36633274
166	0x3da36e47	0.07980018
167	0x3eac93a5	0.33706394
168	0x3e9c5c49	0.30539158
169	0xbed9b05e	-0.4251737
170	0x3d7cae69	0.061689768
171	0x3f180bdf	0.59393114
172	0xbcb61e75	-0.02223132
173	0x3d829338	0.06375736
174	0x3e8cf962	0.27534014
175	0x3eff3532	0.49845272
176	0x3eef8fed	0.46789494
177	0xbe0649e2	-0.13114122
178	0x3de88ace	0.113546
179	0x3e934e55	0.287707
180	0xbfb308bb	-1.3987039
181	0x3e131b60	0.14365911
182	0x3e6ce91d	0.231358
183	0x3e51c5b6	0.20485577
184	0xbf9b7eec	-1.2148108
185	0xbdc3c6d2	-0.09559406
186	0xbdc641f5	-0.09680549
187	0x3e6b0eb4	0.22954828
188	0xbea91c46	-0.33029383
189	0x3e815de1	0.25266936
190	0xbda5b60d	-0.08091364
191	0xbe5b3089	-0.21405233
192	0xbe270f28	-0.16314375
193	0xbc561f4c	-0.013068985
194	0x3dc93423	0.098243974
195	0x3e3d5f1b	0.18493311
196	0xbd8fdfa0	-0.07025075
197	0x3c4ba9f6	0.012430659
198	0x3f1575c9	0.5838285
199	0xbff51045	-1.914559
200	0x3cd0ac01	0.025472643
201	0xbff77012	-1.9331076
202	0x3f6e6674	0.9312508
203	0xbc6b4d8b	-0.014361749
204	0x3c196ae9	0.009363868
205	0xbbf433aa	-0.007452448
206	0x3dcf2969	0.1011532
207	0xbff93a40	-1.9470901
208	0x3f545cb2	0.8295394
209	0xbe25e889	-0.16201986
210	0x3f2a09d8	0.6642127
211	0xbfa9984e	-1.3249605
212	0x3d4ff965	0.05077495
213	0xbe0c117c	-0.13678545
214	0xbdfb81b2	-0.12280597
215	0x3f201365	0.62529594
216	0x3e7ebfcf	0.24877857
217	0x3e17ef44	0.14837366
218	0x3df9a462	0.12189557
219	0x3d0ab72b	0.03386609
220	0x3de6a1b4	0.11261311
221	0x3c392fde	0.011302916
222	0xbc6bb33f	-0.014385997
223	0x3e242d03	0.16032796
224	0xbd63f8ef	-0.055657323
225	0x3f5fad74	0.87374043
226	0x3e0d07a6	0.13772449
227	0x3e8ca88f	0.2747235
228	0xbec110e2	-0.37708193
229	0x3f4a6863	0.7906553
230	0xbceb973c	-0.028758638
231	0x3e5df7af	0.21676515
232	0x3e052562	0.13002542
233	0x3babc431	0.0052418937
234	0xbecb7961	-0.39741042
235	0x3dcc9132	0.09988631
236	0xbef3f70c	-0.4764942
237	0x3d4ece88	0.050489932
238	0xbf515a4e	-0.8177842
239	0x3e5da544	0.21645075
240	0xbef71d0a	-0.48264343
241	0x3e69686c	0.2279374
242	0x3dc1c8ba	0.09462114
243	0xbe24edd5	-0.1610635
244	0xbe05ec7e	-0.13078496
245	0xbbbedd56	-0.005824725
246	0xbd396a86	-0.045267604
247	0xbe846bd9	-0.2586353
248	0x3e24f0f3	0.1610754
249	0xbc372bd3	-0.011179882
250	0x3dd407d0	0.103530526
251	0xbdcd8701	-0.100355156
252	0xbde3b685	-0.11118797
253	0x3d6b0ac1	0.057383303
254	0x3d3358f3	0.043786
255	0xbe0001f9	-0.12500753

bias f4 [252]
0	0x3fc17fbb	1.5117105
1	0x3f856965	1.0422789
2	0x3e4f851e	0.20265624
3	0xbfa3c671	-1.2794935
4	0x3fb26794	1.393786
5	0xbe91d72f	-0.28484485
6	0x3e2c871f	0.1684842
7	0x3f8b7e66	1.0897949
8	0xc0567ca9	-3.3513587
9	0x3fbcd777	1.4753255
10	0x3f137660	0.576025
11	0x3fcf3264	1.6187253
12	0xc092f056	-4.591838
13	0x3e0c9146	0.13727292
14	0x403ae61f	2.9202955
15	0xbff08fb4	-1.8793855
16	0xc00fa832	-2.2446408
17	0xba7cbb78	-0.0009640972
18	0x3f00bacb	0.50285023
19	0x3f0ca43f	0.5493812
20	0x3fa5ad9b	1.2943605
21	0xc082e6a8	-4.0906563
22	0xbe67ae78	-0.22625148
23	0x3f06267d	0.5240248
24	0xc02e589c	-2.7241583
25	0xbfac82fe	-1.3477476
26	0x3f26942a	0.6506983
27	0xbfcf9034	-1.6215882
28	0xc02dc8c7	-2.7153795
29	0x3fbf1fd9	1.4931594
30	0xc0801d5f	-4.0035853
31	0x3fb4c001	1.4121095
32	0xbeed6fad	-0.46374264
33	0xc0416eba	-3.0223832
34	0xc0a318f3	-5.0967956
35	0x3f84509d	1.0337101
36	0x3f144e32	0.57931817
37	0x3f9f9064	1.246594
38	0xc0606fc7	-3.5068223
39	0xc0158b4c	-2.336627
40	0x010a4629	2.5396934e-38
41	0x40a415db	5.127668
42	0x3fab1ef4	1.3368821
43	0x4040a9bd	3.01036
44	0x3eebc12b	0.46045813
45	0x4014d4a6	2.325479
46	0xbee301ed	-0.44337407
47	0xc086df98	-4.214794
48	0x3fc0af7d	1.5053555
49	0x3ff1e320	1.8897438
50	0xbf9f6f2e	-1.2455804
51	0x40195d26	2.3963103
52	0xbec95fa3	-0.39330778
53	0x3f0faf75	0.561271
54	0xbfa4a35f	-1.2862357
55	0x00eaa964	2.1550272e-38
56	0xbfa52749	-1.2902614
57	0x3ef6ed49	0.4822791
58	0x3fa2467b	1.2677759
59	0xbfca781f	-1.5817908
60	0xc014f07e	-2.3271785
61	0xbedd74e2	-0.43253237
62	0xbe7079e0	-0.23483992
63	0x3fbec836	1.490485
64	0xbe928a3f	-0.28621098
65	0x3f41e340	0.7573738
66	0x3f3298b4	0.69764256
67	0x4083f0fa	4.123166
68	0xc0041344	-2.0636759
69	0x3ffc1f76	1.9697101
70	0x4008001c	2.1250067
71	0xbfb5ce5b	-1.42036
72	0xc09eed14	-4.96644
73	0x3f564ae6	0.83708036
74	0x3d558446	0.0521281
75	0xbefe19c8	-0.49629045
76	0xc0ac1d9b	-5.378614
77	0x3fdf001d	1.742191
78	0x3f25fb2b	0.64836377
79	0x40089f0e	2.134708
80	0x3fea4847	1.8303307
81	0xbeaeb473	-0.34122047
82	0xc082a38e	-4.082465
83	0xc09ba717	-4.8641467
84	0x402198fd	2.5249627
85	0x4090962c	4.5183315
86	0x3cad3137	0.021141632
87	0xbecce2bb	-0.40016732
88	0x3f9739ad	1.1814476
89	0xc09981e0	-4.797104
90	0xc09ea9ba	-4.9582186
91	0xbfaad0e0	-1.3344994
92	0xc0753174	-3.8311434
93	0xc0539e2c	-3.306529
94	0xbe27cb3d	-0.16386123
95	0xc0180df7	-2.3758523
96	0x3fa383c1	1.2774583
97	0xbfa68add	-1.3011128
98	0xbf8f35eb	-1.118833
99	0xbf301a36	-0.68789995
100	0xc01fe132	-2.4981198
101	0x4030e709	2.7641013
102	0xc0652283	-3.5802314
103	0xc08c9d10	-4.3941727
104	0x3f8d430f	1.103609
105	0x4055225d	3.3302224
106	0xc01529a8	-2.3306675
107	0x4030b850	2.7612495
108	0xbff52882	-1.9152987
109	0x3eca54fd	0.39517966
110	0xbe7d40b4	-0.24731714
111	0x3fdbb25f	1.716381
112	0xc087a8a5	-4.2393365
113	0x403a5f71	2.9120753
114	0x405a14cc	3.4075193
115	0xbcb1bb82	-0.021695856
116	0xbdf4f7f0	-0.11961353
117	0xc0208175	-2.5079014
118	0xbe7ae2c1	-0.24500562
119	0x4061d6fd	3.5287468
120	0xbe35201a	-0.17688027
121	0xbf45a516	-0.77205026
122	0xbee338d7	-0.44379303
123	0x3f988a4c	1.1917205
124	0x3fc27a77	1.5193623
125	0x3fb6afba	1.4272377
126	0x3faf03bb	1.3673013
127	0x3d5dda54	0.054163292
128	0xc081f462	-4.061082
129	0x3ea7c857	0.32770035
130	0x011017c9	2.6465688e-38
131	0xbe8db8d0	-0.27680063
132	0x3ffdd016	1.9829128
133	0xbb322274	-0.002718118
134	0xbfd298f2	-1.6452925
135	0x3dfbbd24	0.12291935
136	0x3f7d0060	0.988287
137	0xbf98b4f9	-1.1930228
138	0x3eb2f03f	0.34948918
139	0x3e864ce9	0.26230553
140	0x3fccad9e	1.5990484
141	0xbff1b86e	-1.8884408
142	0x400b9892	2.1811872
143	0x3fa2997e	1.2703092
144	0xbe26282e	-0.16226265
145	0x3ea9bd55	0.3315226
146	0x4043e36c	3.0607557
147	0xbe4845db	-0.19557898
148	0x3fc13977	1.5095662
149	0x403439fb	2.8160388
150	0xc09296f8	-4.580929
151	0x3ffcb7ca	1.9743588
152	0x4031b84b	2.7768734
153	0x3fd7e2fd	1.6866146
154	0x3f6c8705	0.92393523
155	0x3f430a75	0.7618783
156	0xc090d624	-4.52614
157	0x401aec46	2.420671
158	0xbf548f22	-0.83030903
159	0x406cb52d	3.698558
160	0xc03676d3	-2.8510025
161	0x3edb8b9e	0.42879957
162	0x3f373ace	0.71574104
163	0x3f7c98a9	0.9867044
164	0x3e9393e4	0.2882377
165	0xbf35b3b5	-0.70977336
166	0x3de46091	0.11151231
167	0x40020d77	2.0320718
168	0xbebbf8ac	-0.3671316
169	0xbff41633	-1.9069275
170	0x3f9ef8fd	1.2419735
171	0xc088e345	-4.277743
172	0x3fea4f5e	1.8305471
173	0x3fbeff01	1.4921571
174	0x3fc2b39a	1.521106
175	0xbe5dc841	-0.21658422
176	0x3ffac03a	1.9589913
177	0x400962a7	2.1466463
178	0x40736cb7	3.8035104
179	0x4002e7ec	2.0454054
180	0xbfb3f238	-1.4058294
181	0x820e32e3	-1.0447116e-37
182	0x401621ad	2.3458054
183	0xc010cb31	-2.2624018
184	0x3f18a50f	0.5962686
185	0x4065d7b9	3.5912917
186	0x3f2db371	0.6785193
187	0xc0a88dca	-5.267308
188	0x4006100b	2.0947292
189	0x409080fe	4.515746
190	0xbfffd564	-1.9986997
191	0x3fc22c3b	1.5169748
192	0x404aef06	3.1708388
193	0x3fc4c117	1.5371426
194	0xc006355f	-2.0970075
195	0x3edbf9a9	0.42963913
196	0x3f1077b8	0.56432676
197	0x3fa57092	1.2924979
198	0xbe9869d8	-0.29768252
199	0xbe77b6fa	-0.24190894
200	0x3f8a8a93	1.082354
201	0xc07421c5	-3.8145611
202	0x3f21fa54	0.63272595
203	0x3fa7f249	1.3120815
204	0xc07c3598	-3.940771
205	0x3fa9fb4d	1.3279816
206	0x3d0d4390	0.03448826
207	0x3e00b864	0.1257034
208	0x3fb2e7a5	1.3976942
209	0x00bdad50	1.7419082e-38
210	0x3fca9e9c	1.5829654
211	0xbfe5c6df	-1.7951316
212	0xc04de587	-3.2171342
213	0x3efba8f5	0.4915234
214	0xc08629cf	-4.1926036
215	0xbdebb47f	-0.11509036
216	0xbf098222	-0.5371419
217	0x3e566bf7	0.20939623
218	0x3f153887	0.5828938
219	0x3f612016	0.87939584
220	0x3f256ffb	0.64623994
221	0x3fef547b	1.8697656
222	0xc0b0f141	-5.52945
223	0xc0053bc1	-2.081772
224	0xbf8bfa65	-1.0935789
225	0x400e4e31	2.2235224
226	0x3fc7d675	1.5612322
227	0x4004d2df	2.0753706
228	0xbf975d1f	-1.1825293
229	0xbf010784	-0.5040209
230	0x3fcab918	1.5837736
231	0xc0607297	-3.506994
232	0xbfc3436b	-1.5254949
233	0xc0206137	-2.5059335
234	0x3ee12a6c	0.43977678
235	0xc019fdfa	-2.4061265
236	0xc097c278	-4.742489
237	0xbefa415a	-0.48877984
238	0xbfcd53ac	-1.604116
239	0x3c2286c5	0.009919827
240	0x3fad2168	1.352582
241	0x3fa05bde	1.2528036
242	0xc024acaa	-2.5730386
243	0xc078af5a	-3.8857026
244	0x3e537095	0.20648415
245	0xbfcdcdeb	-1.6078466
246	0xbf52f7ea	-0.82409537
247	0x3faa6e12	1.3314841
248	0xbf41e253	-0.7573597
249	0xc0221b84	-2.5329294
250	0xbb431fd8	-0.002977362
251	0xbcb347cf	-0.021884827

weight f4 [252, 252]
0	0x0100eff9	2.368206e-38
1	0xbd97693b	-0.07393118
2	0x01035722	2.4123415e-38
3	0xbe19d064	-0.15020901
4	0x010fb5d2	2.6395402e-38
5	0x00ff5118	2.3447142e-38
6	0x01070abc	2.4803285e-38
7	0xbdf36dd6	-0.11886184
8	0xbd9350c9	-0.07193143
9	0x3c3408a1	0.010988385
10	0xbd65a718	-0.056067556
11	0x3ed582db	0.41701397
12	0xbc9dd008	-0.019264236
13	0x00ecbf5e	2.1741827e-38
14	0xbe73d8ae	-0.23813125
15	0xbe0869b0	-0.13321567
16	0xbca6c9e5	-0.020359943
17	0x81be91cc	-7.0004185e-38
18	0x00d9a06a	1.9985848e-38
19	0xbcbfba29	-0.023404198
20	0xbaee40fe	-0.0018177328
21	0x3b0e0f64	0.0021676654
22	0x00f8d84b	2.2852794e-38
23	0xbaa562b5	-0.0012617918
24	0x3e179149	0.14801516
25	0xbdefa354	-0.11701074
26	0xbe064e35	-0.13115771
27	0x3d124918	0.03571424
28	0xbeb4388d	-0.35199395
29	0xbe220b38	-0.15824592
30	0xbd9850e8	-0.07437307
31	0x3e5fda06	0.21860513
32	0xbade28b2	-0.0016949384
33	0xbc4e184a	-0.012579033
34	0xbe237d61	-0.15965797
35	0xbcab0314	-0.020875491
36	0x3dc9d4e8	0.09855062
37	0x00845759	1.215362e-38
38	0xbc3d175f	-0.011541217
39	0xbd4ada6c	-0.04952471
40	0x811b429b	-2.851679e-38
41	0x3d55ccfd	0.052197445
42	0x8108807c	-2.5071438e-38
43	0xbe9a1020	-0.30090427
44	0xbaa09f9a	-0.0012254596
45	0xbe4df25b	-0.20111983
46	0x00fa0df5	2.2963881e-38
47	0xbd5a5d84	-0.05331184
48	0xbd4126e4	-0.04715623
49	0xbb877804	-0.00413418
50	0xbcf1460b	-0.029452344
51	0xbdfd30b2	-0.123628035
52	0x0075dbfc	1.0823669e-38
53	0x94b488f4	-1.8229374e-26
54	0x3ce003a5	0.027345488
55	0x0007f11c	7.29342e-40
56	0x3e043414	0.12910491
57	0xbd4051a5	-0.046952862
58	0x3e882d4b	0.26597056
59	0x010f35a8	2.6303448e-38
60	0x3d65842b	0.05603425
61	0x0105ae71	2.4553398e-38
62	0xbe21b5ed	-0.15792055
63	0xba006aae	-0.0004898709
64	0xb899b449	-7.329189e-05
65	0xbf4cd94c	-0.8001907
66	0xbdcdb521	-0.10044313
67	0x3cee86a0	0.029116929
68	0xbeb89a13	-0.3605505
69	0xbd602928	-0.05472675
70	0xbd13730e	-0.035998397
71	0xbc955e6d	-0.018233502
72	0xbdbfc079	-0.09362883
73	0xbd1e97de	-0.03871905
74	0x01055a8a	2.44932e-38
75	0x800252c4	-2.13362e-40
76	0xa0e15298	-3.8171139e-19
77	0x3ed72f77	0.420284
78	0xba22c041	-0.00062084576
79	0xbdefa755	-0.11701838
80	0x3bb7a51c	0.0056043994
81	0x0107e26e	2.495804e-38
82	0xbdc6c325	-0.097051896
83	0x3e7f01ad	0.24902983
84	0xbe3a6dae	-0.18205902
85	0x3d965a15	0.073414005
86	0x010bc2ee	2.5670123e-38
87	0xbd5feb47	-0.054667737
88	0xbdf8f79a	-0.12156601
89	0xbd5fb27d	-0.05461358
90	0xbd8ad218	-0.067783535
91	0x3ae086c2	0.0017130005
92	0xbe53b22c	-0.20673436
93	0xbf053eb0	-0.5204878
94	0x0103b276	2.418894e-38
95	0x3dcb834b	0.099371515
96	0xbde5b49b	-0.112160884
97	0xbdc8985d	-0.09794686
98	0x3d24f778	0.040275067
99	0x00f2b41a	2.2288798e-38
100	0xbd8bd5bd	-0.06827877
101	0xbe57a8b0	-0.21060443
102	0xbdc730ed	-0.09726129
103	0xbdd0f8f4	-0.10203734
104	0x3e3e5cbf	0.18590067
105	0xbe07c2f3	-0.13257961
106	0x3d61d5c5	0.055135507
107	0xbdd019a8	-0.101611435
108	0xbe2234f4	-0.15840513
109	0x3bbcca1c	0.005761398
110	0x8101187e	-2.371113e-38
111	0xbc8e77ec	-0.017391168
112	0x3c9a093e	0.018803235
113	0xbf26b353	-0.6511738
114	0xbd2b252e	-0.041783504
115	0xbdbaaeff	-0.09115409
116	0xbb0edcac	-0.002179901
117	0x3e12925e	0.14313647
118	0xbe9d3bce	-0.3070969
119	0xbe8d4029	-0.27588013
120	0x01080c42	2.498805e-38
121	0xbc166c69	-0.00918112
122	0x006f923a	1.0246196e-38
123	0x010a50ae	2.5404482e-38
124	0xbe30f116	-0.17279467
125	0x010c45fb	2.5764147e-38
126	0x3e513098	0.20428693
127	0xbb06157d	-0.0020459585
128	0xbe363680	-0.17794228
129	0xbc7ce537	-0.015435508
130	0x00fa748c	2.3000683e-38
131	0x010fe036	2.6425815e-38
132	0x3e715628	0.23568022
133	0x0175b600	4.5129972e-38
134	0xbe050a4f	-0.12992214
135	0xbd202ab2	-0.039103217
136	0xbde9f939	-0.114244886
137	0x80fddba8	-2.3313178e-38
138	0xb99fd7c6	-0.00030487607
139	0x3c7f7b06	0.015593296
140	0xbb84d2a6	-0.0040534316
141	0xbdfa979c	-0.122359484
142	0x00faf5c6	2.3047041e-38
143	0xbf13f727	-0.57799
144	0xbb1a5a63	-0.002355241
145	0x3cb1fd54	0.021727242
146	0xbe79d391	-0.24397112
147	0xb1e67249	-6.7068737e-09
148	0x3cd55108	0.026039615
149	0xbd985d84	-0.07439712
150	0xbce9e4af	-0.028551428
151	0xbeb21ae8	-0.34786153
152	0x3e5910ef	0.21197866
153	0xbd5f165a	-0.054464675
154	0x3f28123f	0.6565284
155	0x3db03942	0.08604671
156	0xbe877d66	-0.2646286
157	0xbdbae138	-0.09124988
158	0xbe1ef538	-0.15523231
159	0xbcddfb42	-0.027097348
160	0x8080d759	-1.1832196e-38
161	0xbdfbba25	-0.122913636
162	0x39b17e6e	0.00033854268
163	0xbd05e4d6	-0.032688938
164	0x0109be7c	2.5299592e-38
165	0x0102b713	2.4008578e-38
166	0x0101bef2	2.3830555e-38
167	0x3e4f3479	0.2023486
168	0x3cd4b61b	0.02596574
169	0xbe0fbf09	-0.14037718
170	0xbd1f006a	-0.038818754
171	0xbdcfa953	-0.10139718
172	0xbd603df6	-0.05474659
173	0xba75c263	-0.0009374974
174	0x810ac586	-2.5488313e-38
175	0xbd8da972	-0.06917085
176	0x00fffe2b	2.350923e-38
177	0xbe741fce	-0.23840258
178	0xbf08cf93	-0.53441733
179	0x3e654202	0.22388461
180	0xbc4e30db	-0.01258489
181	0x811a9a10	-2.8395867e-38
182	0xbcd637f5	-0.02614973
183	0xbdff5b67	-0.124686055
184	0xbc11c198	-0.008896254
185	0xbed543ac	-0.41653192
186	0xbafba54c	-0.0019199043
187	0xbddf0feb	-0.10891708
188	0x0105a285	2.4544844e-38
189	0x3cf69bb1	0.030103536
190	0xbd9ceb28	-0.0766204
191	0xba44369f	-0.0007484946
192	0xbda51c93	-0.08062091
193	0xbd548010	-0.051879942
194	0xbd269594	-0.040669993
195	0xbe705cb5	-0.23472865
196	0x3f2a8699	0.6661163
197	0x3b4a6067	0.0030880214
198	0xbd391e12	-0.045194693
199	0x010f945d	2.6371397e-38
200	0xbf2de001	-0.6791993
201	0xbe7309b1	-0.23734166
202	0x010df06a	2.6070099e-38
203	0x010aff04	2.5529562e-38
204	0x3dba20e0	0.09088302
205	0xbc4aa21d	-0.012367752
206	0xbb0aabee	-0.0021159607
207	0x3e234833	0.1594551
208	0xbc2c4ff0	-0.010517105
209	0x010e3688	2.6120405e-38
210	0x3d6269e4	0.055276766
211	0x3d5eb4ce	0.054371648
212	0xbeb3347c	-0.3500098
213	0xbdc3e908	-0.095659316
214	0xbc080174	-0.008301128
215	0x00f3194e	2.2325103e-38
216	0xbb4dac5b	-0.003138325
217	0x3c921520	0.017832339
218	0x3eedd46f	0.46451136
219	0xbb9a97de	-0.004717811
220	0xbd2137a3	-0.0393597
221	0x3e093314	0.13398391
222	0xb813f8e2	-3.527932e-05
223	0x3d15a12a	0.03653065
224	0xbe7e3ad5	-0.2482713
225	0x0103e008	2.4221635e-38
226	0x3e97084b	0.29498515
227	0xba844cda	-0.0010093704
228	0x0116a230	2.7667013e-38
229	0xbef171e2	-0.47157198
230	0xb946cef5	-0.00018959849
231	0xbe98f199	-0.29871824
232	0x3bee34c4	0.0072694737
233	0xbcd8825e	-0.026429351
234	0x810096b0	-2.3618e-38
235	0xbc989e4b	-0.018630167
236	0xbe2b7e5a	-0.16747418
237	0x80f73c03	-2.2704896e-38
238	0x3d23a590	0.039952815
239	0xbe08502b	-0.13311832
240	0xbedf6c52	-0.4363733
241	0x3b4be93f	0.0031114367
242	0xbe848284	-0.25880826
243	0xbeb01b50	-0.34395838
244	0x81009cd0	-2.3622394e-38
245	0xbc598867	-0.01327715
246	0xbe037ae2	-0.12839845
247	0x3b2766f5	0.0025543545
248	0xbe889df3	-0.26683006
249	0x3cf8ec5a	0.030386139
250	0x810d53d7	-2.5957762e-38
251	0xbbb06259	-0.0053828177
252	0x3f0a8ad2	0.54118073
253	0x3d2aeb8e	0.04172855
254	0x3f211bba	0.6293293
255	0xbd3fc875	-0.04682203

bias f4 [252]
0	0xbd89659c	-0.067088336
1	0x3f9881d0	1.1914616
2	0x3f0ef538	0.55842924
3	0xb88c013d	-6.675951e-05
4	0x80abfa7a	-1.5793724e-38
5	0x3f4cf1b4	0.8005631
6	0xbdc4fbae	-0.096183166
7	0xbae1a27d	-0.0017214563
8	0x3f67ea33	0.90591735
9	0xbeb4ebac	-0.35336053
10	0x3f996205	1.1983038
11	0xbd9a763b	-0.07542082
12	0xbf348742	-0.7051889
13	0xa38046ba	-1.3907742e-17
14	0xbe2aa88b	-0.16665857
15	0x3ef8d275	0.48598066
16	0xba8b4f56	-0.0010628502
17	0x3f9f8208	1.2461557
18	0x3e228c13	0.15873747
19	0xbe6769a8	-0.22598898
20	0xbe467ea7	-0.19384252
21	0xbe621cbb	-0.22081272
22	0x0103c832	2.4204533e-38
23	0x00a485be	1.5108999e-38
24	0x3e1554e1	0.1458316
25	0x3f41f170	0.7575903
26	0xbd05c4d3	-0.03265841
27	0x3e7a5a1f	0.24448441
28	0x3e8203ba	0.25393468
29	0x3f25b00c	0.6472175
30	0x3fa6aa30	1.3020687
31	0x3e8779c3	0.26460084
32	0x3f2ee153	0.6831257
33	0x810a141c	-2.5361025e-38
34	0x0050bf5b	7.415485e-39
35	0x3e6b5a47	0.22983657
36	0x0182c7e6	4.80413e-38
37	0x3f80f215	1.0073878
38	0x3ebc1d10	0.36740923
39	0x00878222	1.2444475e-38
40	0xbe3d2a78	-0.18473232
41	0xbe07b61e	-0.13253066
42	0x3e9d5f2c	0.30736673
43	0x3f4359ce	0.76308906
44	0x3f4a50b1	0.79029375
45	0x3f15d02a	0.5852076
46	0x3f325a5d	0.69669133
47	0x3ee723b0	0.45144415
48	0x3ed1a326	0.40944785
49	0x3fbc6565	1.4718443
50	0xbdd01df7	-0.10161965
51	0xbdbb79b2	-0.09154071
52	0x008776e8	1.2440448e-38
53	0x9790251c	-9.31515e-25
54	0x3f70358c	0.93831706
55	0x3f59fa56	0.8514761
56	0x00ad8575	1.5935416e-38
57	0xbe76509d	-0.24054189
58	0x3e9e78dc	0.30951583
59	0x3eefe7ed	0.46856633
60	0x9147d698	-1.5764459e-28
61	0xb448f765	-1.8716453e-07
62	0x3f59fc2c	0.8515041
63	0x3d19293e	0.037392847
64	0x3f02bb7d	0.51067334
65	0x3edffde9	0.43748406
66	0xbc642aeb	-0.013926248
67	0xb5cc19b0	-1.520666e-06
68	0x81113923	-2.6673287e-38
69	0x3f906e73	1.1283706
70	0x3d9eff38	0.07763523
71	0xbd491395	-0.04909094
72	0xbe54794f	-0.207494
73	0xbdfb9e20	-0.12286019
74	0x3f0ae45d	0.54254705
75	0x3fcbb728	1.591527
76	0xbd4dfd1f	-0.050290223
77	0x3e1ff757	0.15621696
78	0xbe64af6d	-0.22332545
79	0x00a9aa91	1.5581387e-38
80	0x3e287bca	0.16453472
81	0xbed20329	-0.41018036
82	0x81639b6d	-4.1804828e-38
83	0xbf6e8a33	-0.93179625
84	0x3f64e6e6	0.89414823
85	0x3f1ae66c	0.60507846
86	0x3fa6e0c2	1.3037341
87	0xbd644b52	-0.055735894
88	0x3ddd7987	0.10814195
89	0x3f8cd591	1.1002675
90	0x9d20d288	-2.1284666e-21
91	0x3e72d482	0.23713878
92	0xb76fb951	-1.4288657e-05
93	0x3db1af94	0.08676067
94	0x3ebcb42d	0.36856213
95	0x3c62d9ea	0.0138459
96	0x3f4adbdc	0.7924173
97	0xbd424346	-0.04742744
98	0xbeb3a2a4	-0.35085022
99	0x3f869381	1.0513765
100	0xbe667d81	-0.22508813
101	0xbed7c05d	-0.4213895
102	0xae5ec197	-5.06489e-11
103	0x815bde44	-4.0383415e-38
104	0xbd7d8ddd	-0.06190287
105	0xbe124bab	-0.14286678
106	0x3e8b70a1	0.27234367
107	0x9efd95d5	-2.6849386e-20
108	0xbdc4490e	-0.095842466
109	0x3df94114	0.12170616
110	0x3f8fe67f	1.1242217
111	0x3f620b87	0.8829884
112	0xbadeb653	-0.0016991593
113	0x3ef61ac5	0.480673
114	0x3f8f0d57	1.1175946
115	0xbe1e9f0c	-0.15490359
116	0x3e3aeba3	0.18253951
117	0x811f0eb6	-2.9214242e-38
118	0x812b8852	-3.1505545e-38
119	0xbdb7f7f2	-0.08982839
120	0x818f95e5	-5.274499e-38
121	0x00ba60ca	1.7116124e-38
122	0x3f3ec3d8	0.74517584
123	0xbe8215d6	-0.25407284
124	0x3e7159c8	0.23569405
125	0xbdff8034	-0.12475625
126	0xbddd0ee4	-0.10793856
127	0xb9cd2968	-0.00039131497
128	0x01157d5e	2.7456924e-38
129	0x0093a110	1.3557596e-38
130	0xbe8bca45	-0.27302757
131	0x3ff2c42c	1.8966117
132	0xbe503996	-0.20334467
133	0x3ea7922a	0.32728702
134	0xb45b7cf7	-2.0441426e-07
135	0xbc8b9b90	-0.017041951
136	0xbd829967	-0.063769154
137	0xbc77f48e	-0.01513399
138	0x3f1e15a8	0.61751795
139	0x3d7cd54c	0.061726853
140	0x3e912cc9	0.2835448
141	0x3f2c9164	0.6740935
142	0x9488198e	-1.374257e-26
143	0xbd9aa9c5	-0.07551912
144	0xbe564dc7	-0.20928107
145	0xbcbee9ab	-0.023304781
146	0x00d0c91b	1.9173926e-38
147	0xbe900ed2	-0.28136307
148	0x3d5fac99	0.05460796
149	0xbd3ec28b	-0.04657225
150	0xbd9c0436	-0.07617991
151	0x3ed51bb8	0.4162271
152	0x01a902ae	6.208464e-38
153	0xbe8d0479	-0.27542475
154	0x3ebea685	0.3723642
155	0x3d80470b	0.0626355
156	0xbd6fc478	-0.058536977
157	0xbe2e87cd	-0.17043991
158	0x3ea416c3	0.32048616
159	0x3e9927fc	0.29913318
160	0x3eb61b58	0.35567737
161	0x3f0a81f8	0.54104567
162	0x3f6c4946	0.92299306
163	0x3f27132d	0.65263635
164	0x3f570f92	0.84008133
165	0xb9f719cb	-0.00047130728
166	0x3f20ca1e	0.62808406
167	0x3e25697f	0.16153525
168	0x3ec8fc5b	0.39255032
169	0x3f6403be	0.8906821
170	0x3f9329bc	1.1497111
171	0x3e9a7ad4	0.30171835
172	0x3e806eec	0.25084627
173	0x3f253a00	0.64541626
174	0x3d61ce38	0.055128306
175	0x80416802	-6.006618e-39
176	0xbd93de72	-0.072201625
177	0xbd9afc1e	-0.07567619
178	0x3cd57c38	0.026060209
179	0xbf1222ea	-0.57084525
180	0x27590cf9	3.0121832e-15
181	0x80bc1e57	-1.7275957e-38
182	0x81309c61	-3.243829e-38
183	0x3ec52ce3	0.38510808
184	0xbd7d56dc	-0.061850414
185	0x3f48e396	0.7847227
186	0xbd14815b	-0.036256175
187	0x3dd40dcb	0.10354193
188	0xbcef5bd5	-0.029218594
189	0x00b8343c	1.691647e-38
190	0x3eb0130e	0.34389538
191	0xbd58ef91	-0.052962843
192	0x3ca5abc9	0.020223515
193	0xbd7303f0	-0.059329927
194	0xbe627611	-0.22115351
195	0x3f63ce12	0.88986313
196	0x3e029e18	0.1275562
197	0x9f0279c6	-2.76293e-20
198	0xbd89b2f8	-0.06723589
199	0x3f3e146b	0.74249905
200	0x3f20fe6a	0.62888205
201	0x3f00859b	0.50203866
202	0x3cd1adb7	0.025595529
203	0x3f015330	0.5051756
204	0x3e77f2e8	0.24213755
205	0xbd31d3fc	-0.043415055
206	0xbd6b48ad	-0.057442356
207	0x3ec8a65b	0.3918942
208	0x80d20ebc	-1.929074e-38
209	0xbe7499f9	-0.23886861
210	0x3f98a18a	1.1924298
211	0x00ce4ac5	1.8944934e-38
212	0x3f6f7af6	0.93547
213	0xbd2a76fb	-0.041617375
214	0x3e4dfe06	0.20116434
215	0x3f9186e1	1.1369287
216	0xbdd0f294	-0.10202518
217	0x813e805d	-3.4989585e-38
218	0x3e65be24	0.22435814
219	0xbe2ee979	-0.1708125
220	0x3fd54673	1.6662124
221	0xbe5daeb4	-0.21648675
222	0x3edd33c1	0.43203548
223	0xaf3849fb	-1.6760986e-10
224	0xbe62bca2	-0.2214227
225	0xbda08caf	-0.07839333
226	0xbd837da7	-0.06420451
227	0x3f888ba9	1.0667621
228	0x3eeec70f	0.46636245
229	0xbb4177fe	-0.0029520984
230	0x3f088ce2	0.5333997
231	0x3f07025f	0.52737993
232	0x00bc52ba	1.729475e-38
233	0x3cf9ff66	0.030517291
234	0x3f7268f3	0.9469139
235	0x00dead8c	2.0449737e-38
236	0x3d7a2db8	0.061078757
237	0x3ea4bb2f	0.3217406
238	0xbd8202fa	-0.06348224
239	0x807ab97f	-1.1270474e-38
240	0xbe892f35	-0.2679383
241	0xba16e861	-0.0005756673
242	0x00d41912	1.9478119e-38
243	0xba549f26	-0.0008110873
244	0xbe9034ba	-0.28165227
245	0x3fda3208	1.7046518
246	0x3cad54c8	0.02115859
247	0xbd24439d	-0.040103544
248	0xbe885c43	-0.2663289
249	0xbd8bd783	-0.06828215
250	0xbdc4c4ee	-0.09607874
251	0x3f3be496	0.7339567

weight f4 [1, 252]
0	0xc014f7a4	-2.3276148
1	0xbfd48277	-1.6602315
2	0x408133ba	4.0375643
3	0x383bf6b3	4.481403e-05
4	0xab3afe56	-6.6433436e-13
5	0xc003a4dc	-2.0569372
6	0x3dbe74b7	0.09299605
7	0x3b5d0aac	0.0033728285
8	0x400d24d3	2.2053726
9	0xc05df5ea	-3.4681344
10	0x3fe3543f	1.7760085
11	0x3e43d408	0.19123852
12	0xc021ee90	-2.5301857
13	0x39436375	0.000186337
14	0x40e0a9df	7.020736
15	0xc04fac84	-3.2449045
16	0xbb2b0df9	-0.0026100858
17	0xbf9b8730	-1.2150631
18	0xc01f0c8f	-2.4851415
19	0x406ad647	3.6693285
20	0x400d7826	2.2104583
21	0xbf23ab9c	-0.6393373
22	0xb84bb685	-4.8568956e-05
23	0x3aa03850	0.0012223814
24	0x402d59b2	2.7085996
25	0x3fb950c4	1.4477773
26	0xbfa60703	-1.297089
27	0x400a4f83	2.161103
28	0xc099d8dc	-4.807722
29	0xc0309428	-2.7590427
30	0x400c6120	2.193428
31	0x4016d78e	2.3569064
32	0xc00a89b7	-2.1646554
33	0x3b32a978	0.0027261656
34	0xac06cb34	-1.9155346e-12
35	0x4023211e	2.5488963
36	0xb9c40f11	-0.0003739526
37	0xc02bce6f	-2.6844747
38	0xc07384a2	-3.8049703
39	0xb6ac574c	-5.136162e-06
40	0x405ca86a	3.4477792
41	0xc0316137	-2.7715585
42	0xc085903a	-4.173856
43	0x3ff9d719	1.9518768
44	0xc00b6b14	-2.1784105
45	0xbf310d9c	-0.6916139
46	0xc01c0fbd	-2.4384606
47	0x401963b9	2.3967116
48	0xc064fc37	-3.577894
49	0x3ff81364	1.9380918
50	0xbff3e1ec	-1.9053321
51	0xc047446d	-3.1135514
52	0xba86c2a4	-0.0010281396
53	0x395acc8f	0.00020866304
54	0x3fdf1f82	1.743149
55	0x405eef74	3.483365
56	0xbad08bf8	-0.0015910855
57	0x406dc50c	3.7151518
58	0xc09a169c	-4.81526
59	0x3ff67f02	1.925751
60	0xb99cd048	-0.0002990982
61	0x39959e43	0.0002853741
62	0x400c041f	2.1877515
63	0x403b25a2	2.924172
64	0xc037dd6e	-2.87289
65	0xc0612a2d	-3.5181992
66	0xc06aabb4	-3.66673
67	0xbb286ea1	-0.0025700706
68	0xbb547477	-0.0032418051
69	0xc00c586e	-2.1928973
70	0x401ae83e	2.420425
71	0xbff116fa	-1.8835137
72	0x406296e7	3.5404603
73	0x3db16f67	0.086638264
74	0x4014562b	2.3177593
75	0x40056b98	2.084692
76	0x3fe23565	1.7672545
77	0xbdad505d	-0.08462594
78	0xbe5da0ad	-0.21643324
79	0x3b007d64	0.0019605989
80	0xc091a7ff	-4.5517573
81	0xc028d942	-2.6382604
82	0x3004cc30	4.831149e-10
83	0x3e954277	0.2915227
84	0xbfaf13ad	-1.367788
85	0xc0631999	-3.5484374
86	0x400a9aa0	2.1656876
87	0xc012ec4b	-2.2956722
88	0xc0490f38	-3.1415539
89	0x400e472b	2.2230937
90	0xad260dd8	-9.4390815e-12
91	0xc01c6351	-2.4435618
92	0xb9986842	-0.00029069377
93	0x3d831b13	0.06401648
94	0x400affa4	2.171853
95	0xc00fd6c8	-2.2474842
96	0xc02e3a7e	-2.72232
97	0xc01512b1	-2.3292658
98	0x3dd2b45a	0.102883056
99	0x3f48143a	0.78155863
100	0x405bd92c	3.4351301
101	0xbe2fcd30	-0.17168117
102	0xbacfd791	-0.001585709
103	0x3a978f7c	0.0011563147
104	0xc0097989	-2.148043
105	0x4049fa6e	3.15591
106	0xc087d770	-4.2450485
107	0x3a4d4534	0.00078304415
108	0x3dbc8140	0.0920434
109	0x40152fcf	2.331043
110	0xc0023f11	-2.0350993
111	0xc037de3c	-2.872939
112	0x3a9311af	0.001122048
113	0xbff62dae	-1.923269
114	0x4015a741	2.3383334
115	0x402c7f00	2.6952515
116	0x4022baf4	2.5426607
117	0x2ff21e1d	4.404094e-10
118	0xb793c3e0	-1.7614977e-05
119	0xc09edf79	-4.9647794
120	0x3a75b169	0.00093724445
121	0x3b0609cc	0.0020452617
122	0xc04f3856	-3.2378135
123	0x4065c81b	3.5903385
124	0x40a3b8b2	5.116296
125	0xc0a193f4	-5.0493107
126	0x40486eb1	3.131756
127	0x3b52d068	0.0032167677
128	0xba723c3a	-0.0009240542
129	0xba9668c6	-0.0011475317
130	0x406bd501	3.6848757
131	0x3ff2c82e	1.896734
132	0x4066cc8f	3.6062353
133	0x4014b49e	2.323524
134	0xba21186c	-0.0006145302
135	0xc0238ef5	-2.5556004
136	0xbfce4fb6	-1.6118076
137	0xc034961d	-2.8216622
138	0xc04090d5	-3.0088398
139	0xbf896b26	-1.0735824
140	0x4080b3a4	4.021929
141	0xbfe96bc7	-1.8236016
142	0xbb3f4b4b	-0.0029189165
143	0xc045e362	-3.0920033
144	0x40337519	2.804022
145	0x40cfa696	6.489085
146	0x29c5cee1	8.784445e-14
147	0xc057d5ff	-3.3724363
148	0x409cd46b	4.90093
149	0x4022e24c	2.545062
150	0x404d7838	3.2104626
151	0xc0024bce	-2.0358768
152	0xbac929cc	-0.001534754
153	0x3debd6d4	0.115155846
154	0xc0222ba8	-2.5339146
155	0xc0b18680	-5.5476685
156	0xc028585d	-2.6303933
157	0x4065dcaa	3.5915933
158	0xbecf7669	-0.40520027
159	0x40034456	2.051046
160	0xc0810861	-4.032273
161	0xc026e657	-2.6078088
162	0x4022bd35	2.5427983
163	0x401007a1	2.2504656
164	0x405a3380	3.4093933
165	0x3b111d8f	0.0022142862
166	0x4087f305	4.2484155
167	0xc0a284c4	-5.0787067
168	0xc00a2f15	-2.1591237
169	0xbf9ee09f	-1.2412299
170	0x400f098f	2.2349584
171	0xbf35a7d7	-0.7095923
172	0x3ee06cf7	0.43833134
173	0x40118c73	2.2741973
174	0x3cfd861f	0.030947743
175	0x0cc7273e	3.0684423e-31
176	0xc00a5af0	-2.1618004
177	0xc03432b4	-2.8155947
178	0x4028a602	2.6351323
179	0xbe2a5d57	-0.16637169
180	0xb750fdba	-1.2456841e-05
181	0xbb16ec22	-0.002302893
182	0xacda8b20	-6.2113786e-12
183	0xc0440fdb	-3.0634677
184	0xc08a5609	-4.3230023
185	0xbfbe265f	-1.485546
186	0xc03bdcd0	-2.9353523
187	0xc0249bec	-2.5720167
188	0x3d8536ef	0.065046184
189	0xba314bc8	-0.00067633064
190	0xbf9949ee	-1.1975687
191	0xc02f4f92	-2.7392316
192	0xc03f39d5	-2.9879048
193	0x403cde83	2.951081
194	0xc06fe55f	-3.7483747
195	0xc0389001	-2.8837893
196	0xbfdf67d9	-1.7453567
197	0xba564ece	-0.0008175195
198	0xc01ff9d7	-2.499624
199	0xc02b25d1	-2.6741831
200	0xbfe8645b	-1.8155626
201	0xc0539a2e	-3.3062854
202	0xbcdb63a8	-0.026780918
203	0x40232f6b	2.5497692
204	0x3fbe8dae	1.4886987
205	0x3fc60b2c	1.5472159
206	0xc01145e6	-2.2698913
207	0xc066bb44	-3.6051798
208	0xb90d05e7	-0.00013449007
209	0x405aead9	3.420584
210	0xbfdbbf13	-1.7167686
211	0xba206d67	-0.0006119818
212	0xc01540a2	-2.3320699
213	0x4033a774	2.8070955
214	0xc030df1f	-2.7636182
215	0x4004d28c	2.0753508
216	0xbdb3b277	-0.08774274
217	0x3b29780b	0.0025858905
218	0x406cb8d3	3.6987808
219	0x4024d2e4	2.5753717
220	0x3fce9367	1.6138734
221	0x40791ace	3.892261
222	0xc02101bc	-2.5157309
223	0xb93f032f	-0.00018216365
224	0x405be816	3.4360404
225	0xc046fbca	-3.109118
226	0x3da43c5c	0.08019325
227	0x3fb4a7a7	1.4113663
228	0x3faa11e0	1.3286705
229	0xba5b6f9f	-0.000837082
230	0x3f256a66	0.64615476
231	0xc0408cf7	-3.0086038
232	0x0146eedc	3.653823e-38
233	0xbfb4bdf5	-1.412047
234	0xc00562b9	-2.0841506
235	0x3a33eea6	0.00068638695
236	0x4032c0f6	2.7930274
237	0xc005ae9c	-2.0887823
238	0xc02401d3	-2.5626113
239	0x8102bf04	-2.4014276e-38
240	0xbe0eccae	-0.13945267
241	0xba46daae	-0.00075856864
242	0xbaca7651	-0.0015446638
243	0xb9536a83	-0.00020162207
244	0xbe298c60	-0.16557455
245	0x3f968cc9	1.1761714
246	0xc0245fe0	-2.5683517
247	0xc0a5810a	-5.172002
248	0x4080fce2	4.0308695
249	0xc030b3d4	-2.7609758
250	0xc063ecd6	-3.5613303
251	0x401e05b3	2.4690979
