Predict/RobustScaler_and_net/ground_energy/off_Diagonal_RobustScaler_epoch_100_batchsize_32_L1Loss()_lr_0.0001_weightdecay_0.0001.pt (torch, 279127 bytes, 6 tensors)

weight f4 [252, 18]
0	0x3e136f04	0.14397818
1	0x3de6fa41	0.11278201
2	0x3b0a67e2	0.0021119048
3	0xbcf70606	-0.03015424
4	0x3d88fd1e	0.06688903
5	0x3ceae716	0.028674643
6	0x3cd91397	0.026498599
7	0x3bf2ff5f	0.0074156965
8	0x3ce79b18	0.028272197
9	0xbe01f390	-0.12690568
10	0xbf003cda	-0.5009285
11	0x3ea6b98a	0.3256343
12	0x3ee2312c	0.4417814
13	0xbf0edf39	-0.5580936
14	0x3dcaac4c	0.09896144
15	0x3e254933	0.16141205
16	0x3d33bd17	0.043881502
17	0xbea5b606	-0.32365435
18	0x3f229129	0.63502747
19	0x3d2605ca	0.040532865
20	0x3d8f8246	0.070072696
21	0xbc99e703	-0.018786913
22	0x3f22f8cc	0.63660884
23	0x3d1636f5	0.036673505
24	0xbd29eb6f	-0.041484293
25	0x3e297dc3	0.1655188
26	0x3d94e53a	0.07270284
27	0xbf5c6109	-0.86085564
28	0x3f8fea88	1.1243448
29	0x3ec1e1ff	0.37867734
30	0x3f94ccc8	1.1624994
31	0xbf3da519	-0.74080044
32	0xbd1d808b	-0.038452666
33	0x3ed9cdf2	0.42539936
34	0xbe0216f4	-0.12704068
35	0xbc41e439	-0.011834198
36	0xbba4d14f	-0.0050298343
37	0xb7cd1683	-2.4448387e-05
38	0xba57f8ac	-0.0008238654
39	0x3a16d823	0.0005754253
40	0xbb3096a9	-0.002694527
41	0xbb1dca42	-0.0024076854
42	0xbb13d2d5	-0.0022556086
43	0xbadd31c2	-0.0016875791
44	0xbbdcfa61	-0.0067437147
45	0x3afe5483	0.0019403849
46	0xbbd687c6	-0.006546947
47	0x37b953b6	2.20927e-05
48	0xbb414243	-0.0029488958
49	0xbab119e5	-0.0013511745
50	0x3b7e0478	0.0038759988
51	0x3a5b50da	0.0008366235
52	0x3b5c0e79	0.0033577962
53	0xb9ef1b88	-0.00045606145
54	0x3e638048	0.22216904
55	0xbb0caf8a	-0.0021466934
56	0xbc59fab3	-0.0133044
57	0x3b5ad102	0.0033388739
58	0xbc84baaa	-0.01620229
59	0x3dea3f6b	0.11437877
60	0xbbd35df9	-0.0064504114
61	0x3ddede60	0.108822584
62	0xbc873f33	-0.016509628
63	0xbef41849	-0.47674778
64	0x3dabc689	0.08387477
65	0x3dd204f1	0.10254849
66	0x3e33b98e	0.17551252
67	0xbb701679	-0.0036634488
68	0x3e18a405	0.14906318
69	0x3d821e3a	0.063534215
70	0x3e338e8f	0.1753485
71	0x3e7e5dd5	0.24840482
72	0x3e059f3e	0.13049027
73	0x3e3f341b	0.1867222
74	0x3c24aecb	0.0100514395
75	0x3ddee073	0.10882654
76	0x3e2357e2	0.15951493
77	0x3c2c8fc3	0.010532322
78	0x3c20390f	0.009779229
79	0x3bf44ea8	0.0074556656
80	0x3d7069ee	0.058694772
81	0xbe8ba6d9	-0.27275732
82	0x3d33985a	0.043846466
83	0x3e5d22c8	0.21595299
84	0xbf68b5c2	-0.9090234
85	0xbcf3c723	-0.029758042
86	0x3e7bb2ff	0.2458
87	0x3e82a269	0.25514534
88	0x3e127e2e	0.14305946
89	0x3c736206	0.014854914
90	0xc01817d3	-2.376454
91	0x3d7051bd	0.0586717
92	0xbbd7284c	-0.006566083
93	0x3dca074e	0.098646745
94	0xc0124e99	-2.2860472
95	0x3ab068c8	0.0013458962
96	0x3ce5da14	0.02805809
97	0x3cd8aa73	0.026448464
98	0xbfafc2b3	-1.3731292
99	0x3f914a00	1.1350708
100	0xbe08fb88	-0.13377202
101	0xbd7fcb76	-0.062449895
102	0xbdd66852	-0.10469116
103	0x3f7d27f5	0.98889095
104	0xbdc521cf	-0.09625589
105	0xbe0cf857	-0.13766609
106	0xbda2ac9d	-0.079430796
107	0x3e3f937b	0.18708603
108	0x3e0382d2	0.12842873
109	0x3da74d57	0.08169048
110	0x3c56b36c	0.013104301
111	0x3e2bbee0	0.16772032
112	0x3e66ed4e	0.22551462
113	0xbc06e997	-0.008234403
114	0x3c2928ab	0.010324637
115	0xb8aefd18	-8.344109e-05
116	0x3dfdc292	0.12390627
117	0xbeaef03c	-0.3416766
118	0xbeb5f58d	-0.35538903
119	0x3d97b4d7	0.07407539
120	0xbed2f5f0	-0.4120326
121	0xbe98e0ad	-0.29858914
122	0xbbb263ad	-0.005444011
123	0x3e824847	0.25445768
124	0x3da2a33b	0.0794129
125	0x3e4eb85f	0.2018752
126	0xbf85fda0	-1.0468025
127	0x3ec61a94	0.38692153
128	0xbc6ede1c	-0.014579322
129	0x3f055cdc	0.5209482
130	0xbf61bb4c	-0.8817642
131	0x3c527c7c	0.012847062
132	0x3c43293b	0.011911686
133	0xbc11ea5a	-0.008905971
134	0xbcc56cbc	-0.0240997
135	0xbd64979c	-0.05580865
136	0xbf87ad7d	-1.059982
137	0x3caa03b5	0.02075372
138	0xbf6fc50e	-0.93660057
139	0x3e187e33	0.14891891
140	0x3da4e367	0.08051186
141	0xbd6bd668	-0.05757752
142	0xbdb278a4	-0.087144166
143	0x3e5140d0	0.2043488
144	0xbcabffec	-0.020996056
145	0x3e44bc4b	0.19212453
146	0x3d8a2f74	0.06747332
147	0xbe115cb6	-0.14195523
148	0xbd0ebecb	-0.034849923
149	0xbdbc9fb0	-0.092101455
150	0xbdc41c1e	-0.095756754
151	0x3da60d4e	0.081080064
152	0xb9523074	-0.00020045211
153	0xbf184ff5	-0.59497005
154	0xbf18eea1	-0.5973912
155	0xbe43c0ba	-0.19116488
156	0xbf8b2e80	-1.0873566
157	0xbeee585c	-0.46551788
158	0xbecbed41	-0.39829448
159	0xbec1f32f	-0.37880847
160	0xbe76a2e0	-0.2408557
161	0xbc97fd92	-0.018553529
162	0x3c708108	0.014679201
163	0x3e4f14fe	0.20222852
164	0xbda3d4e9	-0.07999594
165	0x3dbdcf00	0.09267998
166	0x3e1c041a	0.1523594
167	0x3e44f25e	0.1923308
168	0x3e250397	0.1611465
169	0xbd959780	-0.07304287
170	0xbc1d8486	-0.009614116
171	0xbeef2bc2	-0.46713072
172	0x3f710e07	0.9416203
173	0x3e94778d	0.2899746
174	0x3f8dab92	1.1067984
175	0xbd829b4f	-0.06377279
176	0xbd8ddc96	-0.06926839
177	0x3ddeaacb	0.1087242
178	0x3dd30f2d	0.10305629
179	0x3ecd7118	0.40125346
180	0xbe3cbc28	-0.18431151
181	0xbea7258a	-0.32645828
182	0x3e364f3a	0.1780366
183	0x3e6c9568	0.23103869
184	0x3e3b2f04	0.18279654
185	0xbf06fe07	-0.52731365
186	0xbe4e0c9e	-0.20122
187	0xbe558abd	-0.20853706
188	0x3caa8313	0.020814454
189	0x3e629f13	0.22130994
190	0xbdf04e70	-0.11733711
191	0x3ae4d856	0.0017459493
192	0xbdaa8fa7	-0.08328181
193	0x3d40928f	0.04701477
194	0xbdb3624b	-0.08758982
195	0xbdb2e429	-0.08734924
196	0xbda3df6f	-0.08001601
197	0x3cc58fc5	0.024116406
198	0x3ed75fc2	0.42065245
199	0x3e97d6ed	0.29656163
200	0xbd6b4450	-0.057438195
201	0xbb8dc9df	-0.0043270434
202	0x3f04d483	0.5188677
203	0x3d5c306d	0.05375712
204	0x3d809e0d	0.06280146
205	0xbd85db0d	-0.06535921
206	0x3e51168c	0.20418757
207	0xbf8b3655	-1.0875956
208	0x3de12323	0.1099303
209	0x3e47bdc4	0.19505984
210	0x3d638154	0.05554326
211	0xbf22adee	-0.63546646
212	0x3e530a08	0.20609295
213	0x3e45a0a9	0.19299568
214	0x3e2b9f78	0.16760051
215	0xbec47dfe	-0.38377374
216	0xc019f12f	-2.4053457
217	0x3b153b28	0.0022770856
218	0x3b9a5a65	0.004710483
219	0x3e37f1bc	0.17963308
220	0xc00f6815	-2.2407277
221	0x3d195a3b	0.037439566
222	0x3bb3e30a	0.0054897116
223	0xbc24a473	-0.010048973
224	0xbf9f6637	-1.2453068
225	0x3f8cef34	1.1010499
226	0xbe38cb21	-0.18046238
227	0xbe984db8	-0.29746795
228	0xbe14b85a	-0.1452345
229	0x3f8ac7e7	1.0842255
230	0xbeb439d4	-0.3520037
231	0xbf021256	-0.5080923
232	0xbec3d3dc	-0.38247573
233	0xbeaa9a08	-0.33320642
234	0x3ed48ccc	0.4151367
235	0x3e56eb8f	0.20988296
236	0xbbd7cee6	-0.0065859435
237	0x3e4218b3	0.18954735
238	0x3e3f9e7a	0.18712798
239	0x3ca47b3c	0.020078294
240	0x3c8acdbc	0.016943805
241	0x3bdd19ad	0.0067474456
242	0x3e06dd19	0.1317028
243	0xbf423b43	-0.75871676
244	0xbf23ebbd	-0.64031583
245	0xbedef6cb	-0.43547663
246	0x3cd15034	0.02555094
247	0xbf245113	-0.6418621
248	0xbeaa5611	-0.33268788
249	0xbec99c90	-0.3937726
250	0xbef5231a	-0.47878343
251	0xbec3c956	-0.38239545
252	0x3e9b0da1	0.30283836
253	0x3ce72c9e	0.028219517
254	0x3de3ad60	0.11117053
255	0x3dcba164	0.09942892

bias f4 [252]
0	0xc05d4836	-3.4575324
1	0xbfad82e0	-1.3555565
2	0xba8d4409	-0.0010777722
3	0xc03138a4	-2.769082
4	0xc099a57d	-4.801451
5	0x3dceff22	0.101072565
6	0xc067950c	-3.618472
7	0x4027f4a4	2.6243067
8	0x3ff5e79e	1.9211309
9	0xc0157a15	-2.3355763
10	0xbda58cd2	-0.080835
11	0xbfa038e2	-1.2517359
12	0x3e4924d5	0.19642957
13	0xc0871477	-4.221248
14	0xbffe55b4	-1.9869905
15	0x4033b512	2.8079267
16	0xc097e248	-4.746372
17	0x3ecb14ea	0.39664394
18	0x3fa4dba9	1.2879535
19	0xc0981996	-4.7531233
20	0x3fe3e1de	1.7803304
21	0xbf92cd45	-1.1468893
22	0x3e97e2d8	0.29665256
23	0x40160026	2.343759
24	0x3fe01d88	1.7509012
25	0xc057c639	-3.3714736
26	0x3fb131c8	1.3843317
27	0x3f9726fd	1.1808773
28	0xbf9d8beb	-1.2308325
29	0xbf44643f	-0.76715463
30	0x4033564b	2.802142
31	0xa364bd3c	-1.2399977e-17
32	0x40367f58	2.8515224
33	0xc04b9c77	-3.1814249
34	0x3fe9b960	1.8259697
35	0x401657e4	2.3491144
36	0x3faaa549	1.3331691
37	0x3f4c2502	0.7974397
38	0x3f4d73b0	0.8025465
39	0xc04a4497	-3.1604364
40	0x401ddcba	2.466597
41	0x402ea8ba	2.7290483
42	0x00f586ca	2.254805e-38
43	0xbf3e8401	-0.7442017
44	0xc00c9983	-2.1968696
45	0xbd2a6b1c	-0.041606054
46	0x4001866d	2.0238297
47	0xc02bf7b9	-2.6869948
48	0x3fd79e50	1.6845188
49	0xc096ee08	-4.7165565
50	0xbfead05a	-1.8344834
51	0x3f6bb664	0.9207518
52	0x4049c9ee	3.1529498
53	0x3ecb3047	0.3968527
54	0xbf01409b	-0.50489205
55	0xc006c26a	-2.105616
56	0x3f15bc48	0.5849042
57	0xbf0a996b	-0.5414035
58	0x3fcbafb5	1.5912997
59	0xbfb81335	-1.4380862
60	0x3faaedc4	1.335381
61	0x3f25f448	0.6482587
62	0x3f8a7aad	1.0818688
63	0xbe4cb3d8	-0.1999048
64	0xbff6cccd	-1.928125
65	0x3f64e785	0.8941577
66	0x3fdf76cb	1.7458128
67	0xc0b1687d	-5.544005
68	0x3f21d6b2	0.63218224
69	0xbf4cf735	-0.8006471
70	0xc0a3497c	-5.1027203
71	0x3f2fa218	0.6860671
72	0xbda06203	-0.07831194
73	0x3ea8d1e1	0.32972625
74	0xbfde7f39	-1.7382575
75	0x3fa79113	1.3091148
76	0x3fb342fb	1.4004816
77	0x3f16e950	0.58949757
78	0xc04000a5	-3.0000393
79	0x3e816d85	0.2527887
80	0xbfcbcb82	-1.5921481
81	0xc0561d6c	-3.3455458
82	0x3fc8a786	1.5676124
83	0x3fced862	1.6159785
84	0x402a662c	2.662486
85	0xbff69fbb	-1.9267496
86	0x3fcf9c8e	1.6219652
87	0x404387b1	3.055157
88	0x400ce9b1	2.2017634
89	0xbdfcf64c	-0.12351665
90	0x3f193247	0.5984234
91	0x3ffd0d73	1.9769729
92	0xc0478b1e	-3.117866
93	0x401af507	2.4212053
94	0x3f956135	1.167029
95	0xbfafce41	-1.3734819
96	0x402d4989	2.7076132
97	0x3f17cbb2	0.5929519
98	0x3fc12ad1	1.5091192
99	0x3f8bf6ab	1.0934652
100	0x401962bd	2.3966515
101	0xbfbe32aa	-1.4859211
102	0xc09b6c26	-4.8569517
103	0x3e2c2744	0.16811854
104	0xbf91ce9a	-1.1391175
105	0x3f163cd8	0.5868659
106	0x400953b1	2.145733
107	0xc022034f	-2.531452
108	0xc0a31eed	-5.097525
109	0xbfc2bf6a	-1.5214665
110	0xbff8cff3	-1.9438461
111	0xc0537dcf	-3.3045537
112	0xc02f8829	-2.7426856
113	0x3e8cc25c	0.27492034
114	0x00fbde43	2.3130442e-38
115	0x3ea94e3a	0.33067495
116	0x3fbdd78f	1.4831408
117	0x3c5864c8	0.013207622
118	0xc05101a0	-3.2657242
119	0xc067dec1	-3.6229708
120	0x3ef460f8	0.4773023
121	0xc03b5f16	-2.9276786
122	0x3f93c83d	1.1545483
123	0xc027d521	-2.6223834
124	0x400c456e	2.1917377
125	0x3fe28abd	1.769859
126	0xbf7b884e	-0.9825486
127	0x3fab088d	1.3361984
128	0xbe01e097	-0.1268333
129	0x402d177f	2.704559
130	0x4082320f	4.0686107
131	0x3f7b74dd	0.98225194
132	0x3fa6ba84	1.302567
133	0x3fcc9dc5	1.5985647
134	0x405063ca	3.2560906
135	0xbfe1c018	-1.7636747
136	0xc0755d88	-3.8338337
137	0x4011ab46	2.2760787
138	0xbffbb1e7	-1.9663666
139	0xc06affe1	-3.6718676
140	0x4019b9b5	2.4019597
141	0x3f7e133d	0.99248105
142	0x3eb0254e	0.3440346
143	0xc0b8b451	-5.7720113
144	0x3e6bd8f2	0.23031977
145	0xc00c6508	-2.1936665
146	0x3fe62ef6	1.7983081
147	0x3f4636ec	0.77427554
148	0x3feac635	1.8341738
149	0x3f8123d6	1.0089061
150	0xc001a1a3	-2.0254905
151	0xc02a3eb1	-2.6600764
152	0x3fa9e1f5	1.3272082
153	0x400bbf0c	2.1835356
154	0xbfb6bbc7	-1.4276055
155	0xc079247e	-3.8928523
156	0xbf6d7586	-0.9275745
157	0xc08d1a1c	-4.409437
158	0xbf7e0edd	-0.9924143
159	0x3fd8b3f1	1.6929914
160	0x3f08047c	0.5313184
161	0xbfa34a58	-1.2757063
162	0x3f2709b9	0.6524921
163	0xbfa2456a	-1.2677433
164	0x3d353f86	0.044250034
165	0x0072a7a6	1.0529387e-38
166	0x4076445a	3.8479218
167	0x3ff2c534	1.8966432
168	0xbdea82fa	-0.11450763
169	0x3ff1388b	1.884538
170	0x3f18d281	0.59696203
171	0x3ffd8f6b	1.9809393
172	0xbe01d928	-0.12680495
173	0x3f1c56ad	0.61069757
174	0x3f1b6c46	0.6071209
175	0x3e4423df	0.19154309
176	0xbfee0a61	-1.8596917
177	0x3fddeabc	1.733726
178	0xbfe8cd67	-1.8187684
179	0x3ffecd43	1.9906391
180	0xa5d5c24e	-3.7081276e-16
181	0x408a9e82	4.331849
182	0x403fb756	2.995565
183	0xc08db29b	-4.4280524
184	0x3f5c9b23	0.8617422
185	0x3f4bfaf7	0.79679817
186	0x3f4e33df	0.805479
187	0x3f4548bc	0.7706411
188	0x4030be76	2.7616248
189	0xc02a35a7	-2.6595247
190	0x3fe49a06	1.7859504
191	0x3ee202be	0.44142717
192	0xc081ab57	-4.0521655
193	0x40277bfa	2.616942
194	0xc01e982d	-2.478038
195	0x3f59c72f	0.85069555
196	0x3f89e408	1.0772715
197	0xbfb99ac0	-1.4500351
198	0x3fc44b18	1.5335417
199	0x3f669a83	0.90079516
200	0xbfd4da90	-1.66292
201	0x3f599d06	0.85005224
202	0xbff9a57f	-1.950363
203	0x3ed14bf9	0.40878275
204	0x4013c48a	2.3088708
205	0x3f807eb4	1.0038667
206	0xbeb92978	-0.3616445
207	0x3ffc5a92	1.971514
208	0x3f5b3b45	0.85637313
209	0x400a3dcf	2.1600225
210	0x3fdef333	1.7417969
211	0x409516ba	4.6590242
212	0xc06f08e6	-3.734918
213	0x4003884b	2.0551937
214	0x3fcd2852	1.602793
215	0x3fbc4adb	1.4710344
216	0x3e40bc09	0.1882173
217	0xbe57873f	-0.21047686
218	0x3fac47eb	1.3459448
219	0xbffc11a8	-1.9692888
220	0xc0136d6b	-2.3035533
221	0xbef2d725	-0.47429767
222	0xbffe455b	-1.9864916
223	0xbf7af12b	-0.98024243
224	0x4020bfb2	2.5117002
225	0x3fac7ee2	1.3476222
226	0x4002ba6c	2.0426283
227	0xbe8519b9	-0.25996187
228	0x3cba35b6	0.02273069
229	0x3f8fbd06	1.122956
230	0x3fadb732	1.3571532
231	0x40047e38	2.0702038
232	0x3f83b293	1.0288872
233	0x807ef944	-1.1660692e-38
234	0xbff2c533	-1.896643
235	0x3f4d00ac	0.8007915
236	0x3df80aa1	0.12111402
237	0x401f7c7f	2.4919736
238	0xc0925132	-4.5724115
239	0x3e22c581	0.15895654
240	0x01069824	2.4721069e-38
241	0xbb2e99b1	-0.00266419
242	0xc08f46cc	-4.477392
243	0xbfc7ab45	-1.5599142
244	0x404dfd5c	3.2185888
245	0x400d5ecf	2.2089117
246	0xbe2749b9	-0.16336717
247	0x40186b53	2.3815506
248	0x400a22e9	2.1583807
249	0x3f0ff9dd	0.56240636
250	0x4032c905	2.7935193
251	0x3e333e05	0.17504127

weight f4 [252, 252]
0	0xbe5140fc	-0.20434946
1	0xbe710e0b	-0.23540513
2	0xbb37bd27	-0.0028036328
3	0xbe909792	-0.2824064
4	0xbec47d67	-0.38376924
5	0x3ea8c552	0.32963043
6	0xbe86ea48	-0.26350617
7	0x3e95082b	0.29107794
8	0x3a111740	0.00055347756
9	0xbdebc801	-0.11512757
10	0x3b4d4569	0.003132189
11	0xbe77b824	-0.24191338
12	0x3ecf97f7	0.40545627
13	0xbed1a1f3	-0.4094387
14	0xbd973d7b	-0.07384773
15	0x3d2f1d7b	0.042752724
16	0xbf101f85	-0.56298095
17	0xbc8cfc89	-0.017210262
18	0xbd607346	-0.054797433
19	0xbe1da327	-0.15394269
20	0xbddd3d19	-0.10802669
21	0xbeb26f97	-0.3485076
22	0x3dad8a0b	0.08473595
23	0x01109558	2.6555772e-38
24	0x3e5cea68	0.21573794
25	0xbea28580	-0.31742477
26	0xbd0a3dd4	-0.03375037
27	0x3ef1a189	0.47193554
28	0xbd7fea5d	-0.062479366
29	0xbd73648e	-0.05942207
30	0x3de400dc	0.111329764
31	0x80f8acae	-2.2837149e-38
32	0x3d961f49	0.07330186
33	0xbf0137a1	-0.5047551
34	0x3df09a3c	0.11748168
35	0x3e7f7bbc	0.24949545
36	0xbd4df375	-0.050281007
37	0x3ea75fcd	0.32690278
38	0xbe9f3cc2	-0.31101042
39	0xbd21b185	-0.039475936
40	0x3d886582	0.06659986
41	0x3dcf548a	0.101235464
42	0x801b7afc	-2.523677e-39
43	0xbeb39480	-0.35074234
44	0xbe520940	-0.20511341
45	0xbd1978d1	-0.037468735
46	0x3dc59bc3	0.0964885
47	0xbea69278	-0.32533622
48	0x3cefc05c	0.029266529
49	0xbf1121df	-0.5669231
50	0xbe9ffb34	-0.3124634
51	0xbb58a8fe	-0.0033059712
52	0x3d9c6003	0.076355
53	0xbe96b58a	-0.29435378
54	0xbe39d753	-0.18148546
55	0x3c790997	0.01520004
56	0x3df365e8	0.118846714
57	0x3ba38058	0.004989665
58	0x010ac4e8	2.548787e-38
59	0xbe9cb2fd	-0.30605307
60	0x3cf6d51f	0.030130921
61	0x00d128fb	1.920832e-38
62	0xbee9f224	-0.4569255
63	0x3e6f3765	0.23360975
64	0xbf0300e1	-0.51173216
65	0x3e98a962	0.2981673
66	0x3e2b9474	0.16755849
67	0xbf12a8d5	-0.5728887
68	0xbd9cd9ce	-0.076587304
69	0xbe143e8b	-0.14476983
70	0xbeff55e4	-0.49870217
71	0x3e9606aa	0.2930196
72	0x3e3bb3ff	0.18330382
73	0x3e09c9a3	0.13455825
74	0xbdaa1c3d	-0.08306167
75	0x39595da7	0.00020729621
76	0x3df58cc8	0.119897425
77	0x3e505e6c	0.20348519
78	0xbe683600	-0.2267685
79	0x00db42cc	2.0135936e-38
80	0xbdb29f88	-0.087218344
81	0xbee016c9	-0.43767384
82	0x3df6b4e5	0.12046222
83	0xbd1b1448	-0.03786114
84	0x3de21eaa	0.11041005
85	0xbd34c31a	-0.044131376
86	0x3e159bb8	0.14610183
87	0x3e498e42	0.19683173
88	0x3e41b7c8	0.18917763
89	0x3da4331e	0.08017562
90	0xbb4efb4e	-0.0031582895
91	0xbdd35209	-0.10318381
92	0xbe9889e7	-0.2979271
93	0x3d85e85f	0.06538462
94	0x3d342c8f	0.043987807
95	0xba53d8a1	-0.00080812915
96	0x3d2a030f	0.041506823
97	0xbdc5a5db	-0.09650775
98	0x3dd3414f	0.10315191
99	0xbb352873	-0.0027642518
100	0x3dbc4720	0.091932535
101	0xbcd44726	-0.025912832
102	0xbee0339e	-0.4378938
103	0xbe0eeb84	-0.1395703
104	0xbcf884d6	-0.030336779
105	0x3e770e4c	0.24126548
106	0x3dcc1bdb	0.099662505
107	0xbe1a476b	-0.15066306
108	0xbf011a3c	-0.50430655
109	0xbe7e001b	-0.24804728
110	0xbdd77489	-0.10520274
111	0xbe69567f	-0.22786902
112	0xbe9e2d41	-0.308939
113	0x3e47fb5b	0.19529478
114	0x813ee7c0	-3.506376e-38
115	0xbe84ae3f	-0.2591419
116	0xbcce25c8	-0.0251645
117	0xbe3584e9	-0.17726482
118	0xbda9f2ba	-0.082982495
119	0xbe1ebbc7	-0.15501319
120	0x3e5f78a4	0.21823364
121	0xbe3760ef	-0.17908071
122	0x3b3973c1	0.0028297754
123	0xbe713362	-0.23554757
124	0x3e4e9ff8	0.2017821
125	0x3d3ed6cb	0.04659156
126	0xbe4fd632	-0.20296553
127	0xbe02eaee	-0.12784931
128	0x3d9c0ff3	0.076202296
129	0x3d3c08df	0.045906898
130	0x3e031bc4	0.1280356
131	0x3e364c73	0.178026
132	0x3e36b1ba	0.17841235
133	0x3cbd3c5d	0.023100073
134	0xbf85273a	-1.0402596
135	0xbe14fecc	-0.14550322
136	0xbe10c030	-0.14135814
137	0x3d63da4c	0.055628106
138	0xbe6bcdda	-0.23027745
139	0xbe288c49	-0.16459765
140	0x3aaefbd0	0.0013350192
141	0xbd3ee57b	-0.04660557
142	0xbe93e9a9	-0.28889206
143	0xbf232a3f	-0.6373634
144	0x3da3764b	0.07981547
145	0xbcbbfc86	-0.022947561
146	0xbe1a53ef	-0.1507108
147	0xbde48deb	-0.11159881
148	0xbd4109b2	-0.047128387
149	0xbe146a0a	-0.14493576
150	0xbd85b21c	-0.06528112
151	0xbd9e6943	-0.07734921
152	0xbe4e8f77	-0.20171915
153	0x3da026c3	0.07819893
154	0xbe1e3f08	-0.15453732
155	0xbeab2cb8	-0.33432555
156	0x00d60ac9	1.9656665e-38
157	0xbef42205	-0.47682205
158	0xbc2cae44	-0.010539595
159	0x3da3285a	0.07966681
160	0x3ecc822c	0.39943063
161	0x80ad6460	-1.5923549e-38
162	0x3c3dde2c	0.011588614
163	0xbc840fd1	-0.016120823
164	0xbe3907ac	-0.18069333
165	0x00b380e8	1.6484797e-38
166	0x3e331d5d	0.1749167
167	0x3cec30cd	0.028831864
168	0x3c1b5cc1	0.0094825635
169	0x3daf0119	0.08545131
170	0x3d8bef6a	0.06832774
171	0xbf07afae	-0.5300244
172	0xbe3e8db3	-0.18608741
173	0x3e991830	0.29901266
174	0xbcefcc3d	-0.029272193
175	0x3d22c68b	0.039740127
176	0xbcbbc5de	-0.022921499
177	0x3e926dc8	0.2859938
178	0xbd935e8c	-0.07195768
179	0x3dcabcfc	0.09899327
180	0x0051744a	7.480392e-39
181	0xbf367883	-0.71277636
182	0x3df40665	0.11915282
183	0xbeedb5c2	-0.46427733
184	0x3da8e5b8	0.082469404
185	0xbd92b205	-0.07162861
186	0xbd194d36	-0.03742715
187	0xbed2810b	-0.41114077
188	0x3d93260f	0.071849935
189	0xbe53e5d2	-0.20693138
190	0x3e6b3e4d	0.22972985
191	0x3b484115	0.003055637
192	0xbef63918	-0.48090434
193	0xbdf167ab	-0.11787351
194	0xbe96957f	-0.2941093
195	0x3ca71cb0	0.020399421
196	0x3ec9107d	0.39270392
197	0xbc97291b	-0.018452218
198	0xbe413585	-0.18868072
199	0x3cab1e02	0.020888332
200	0xbcca8c0a	-0.024724979
201	0x3d9fff21	0.07812334
202	0xbe9b3b5b	-0.30318722
203	0x3eba8aac	0.36433923
204	0x3d43dae7	0.047816183
205	0xbe4bc754	-0.19900256
206	0xbc3139cd	-0.010817003
207	0xbc4b1345	-0.012394731
208	0x3e206d75	0.15666755
209	0x3e607734	0.21920472
210	0x3e3eaefc	0.18621439
211	0xbf890a01	-1.0706178
212	0xbeea4c0e	-0.4576115
213	0x3e05002d	0.12988348
214	0x3e19d010	0.15020776
215	0x3e0e0981	0.13870813
216	0x3f015dcd	0.50533754
217	0x3ca5b547	0.020228041
218	0x3e84e45c	0.25955474
219	0xbea0b7f6	-0.3139035
220	0xbe620760	-0.22073126
221	0xbdd9b701	-0.10630608
222	0xbd05bbfe	-0.032649986
223	0xbc9ebf20	-0.019378245
224	0xbf81a02b	-1.0127004
225	0xbe6b2db0	-0.22966647
226	0x3e8e6a6e	0.27815574
227	0x3e99ae8a	0.30015975
228	0xbace4da5	-0.0015739693
229	0xbc91d9cd	-0.01780405
230	0x3e265a0b	0.16245286
231	0x3e4b9e8d	0.19884701
232	0x3e9fccb2	0.31210858
233	0x01611ce8	4.1346712e-38
234	0xbd976f79	-0.073943086
235	0xbd5a83c2	-0.05334831
236	0xbe00fe46	-0.12596998
237	0x3d8e3c86	0.06945138
238	0xbf23b65e	-0.63950145
239	0xbe49eeb5	-0.19719966
240	0x8110b016	-2.6574958e-38
241	0xba789527	-0.00094826746
242	0xbec2edd7	-0.38072082
243	0xbe38fa94	-0.18064338
244	0x3dddbbac	0.10826811
245	0xbefafd79	-0.4902151
246	0x3eaea643	0.34111223
247	0x3d177696	0.036978327
248	0x3daf5aad	0.08562217
249	0xbe066436	-0.13124165
250	0xbe8ebf67	-0.27880403
251	0xbde4bdad	-0.1116899
252	0xbd15feec	-0.036620066
253	0xbe190711	-0.14944102
254	0x817798a2	-4.5476244e-38
255	0xbd174bf1	-0.036937658

bias f4 [252]
0	0x3ddcee71	0.107876666
1	0xbc804843	-0.015659457
2	0xbdb09492	-0.086220875
3	0x3f8da822	1.1066935
4	0xb87c41a0	-6.01426e-05
5	0x3cd75a67	0.026288224
6	0x3d7b2481	0.06131411
7	0x3f473a06	0.7782291
8	0xbe565679	-0.20931424
9	0x80ceeeb3	-1.9003741e-38
10	0x3ee6f53e	0.4510898
11	0x3f2e1976	0.680076
12	0xbb29b4fa	-0.0025895224
13	0xbeb6f090	-0.3573041
14	0xbe2c7fa3	-0.16845565
15	0x3f4c765d	0.7986811
16	0x3f486deb	0.7829272
17	0x3f22ca38	0.6358981
18	0x8105f246	-2.4602065e-38
19	0x3e82da6b	0.25557265
20	0x3f7ee661	0.9957028
21	0x3c411679	0.011785143
22	0x3e986997	0.2976806
23	0x3e27e3de	0.16395518
24	0x3f447b1d	0.76750356
25	0xbd8068c7	-0.06269985
26	0x3f52ad73	0.8229591
27	0x3e03e757	0.12881218
28	0x3f5c9a65	0.8617309
29	0xbdc8b0fd	-0.09799383
30	0x3f2aa3d6	0.66656244
31	0xa77ca27e	-3.5060112e-15
32	0x3f8eaeae	1.1147058
33	0xbe2bd02f	-0.16778634
34	0xbd6d9f04	-0.058012977
35	0x3e56c06c	0.2097184
36	0xbdd49bc4	-0.103812724
37	0xbd98d8b5	-0.074632086
38	0x3f6c0491	0.9219447
39	0x3f32669c	0.6968782
40	0xbd3e6e8a	-0.046492137
41	0x3e40cdb4	0.1882847
42	0xbdf8ff53	-0.12158074
43	0x3f87118c	1.055223
44	0xbe4b5533	-0.1985672
45	0xb9c5bcbb	-0.00037715383
46	0x81a735a1	-6.1423065e-38
47	0x8181c7f5	-4.767404e-38
48	0x3f5be357	0.8589377
49	0xbd2982ab	-0.04138438
50	0xbe4a8fe9	-0.1978146
51	0x3fbaa205	1.4580694
52	0x3e80236a	0.2502702
53	0x3ef85f1d	0.48510066
54	0x3ee16d4e	0.44028705
55	0x3e16947a	0.14705077
56	0x3d7865da	0.06064401
57	0x00aa2ff9	1.5629244e-38
58	0x9507bed9	-2.7413585e-26
59	0x3f14cb40	0.58122635
60	0x3daa0e20	0.083034754
61	0x3dabbd89	0.0838576
62	0x3cd26c85	0.025686512
63	0x3e5fc9f1	0.21854378
64	0x3f6e6ef3	0.93138045
65	0x3d348836	0.044075213
66	0x3d65b53d	0.056081045
67	0xbdf55883	-0.11979773
68	0x3f0c2d32	0.5475646
69	0xbcff3ed1	-0.031157883
70	0xbddeba12	-0.10875334
71	0x3e64ebc8	0.22355568
72	0x3e46ad81	0.19402124
73	0x3f070288	0.5273824
74	0xbd906a2c	-0.07051501
75	0x3eec817f	0.46192548
76	0x3cbeda95	0.023297587
77	0x3e832b14	0.25618804
78	0x3db86bb9	0.090049215
79	0x3d099552	0.03358967
80	0xbf06c7b8	-0.52648497
81	0x813b3fae	-3.4392163e-38
82	0xbd9cf9da	-0.07664843
83	0xbe128756	-0.14309439
84	0x3f79758e	0.97445
85	0x3f48de91	0.7846461
86	0xbe405c71	-0.18785264
87	0x3c6380ce	0.01388569
88	0xbdd4d780	-0.10392666
89	0x3e97bfd2	0.29638535
90	0x3e05fcbf	0.13084696
91	0xbda6e94c	-0.081499666
92	0xbdccef0a	-0.100065306
93	0xbd44d3bd	-0.04805349
94	0x3f226da6	0.6344856
95	0xbd434c97	-0.047680464
96	0x3eb22869	0.34796456
97	0x00d76ab2	1.9782907e-38
98	0x3ef57aa9	0.47945145
99	0xbdad5936	-0.08464281
100	0x3d932541	0.0718484
101	0x00a2be5c	1.4945638e-38
102	0xbcf05802	-0.02933884
103	0x00cd2012	1.8837781e-38
104	0x3eb3a8a8	0.35089612
105	0xbb9bf2a0	-0.0047591478
106	0x3f8985f7	1.0744008
107	0x3eecacc8	0.46225572
108	0x3f500314	0.81254697
109	0x3ed90d80	0.42393112
110	0x3d19a80d	0.03751378
111	0xbd2de181	-0.042451385
112	0xbf66d205	-0.90164214
113	0x3f866753	1.0500282
114	0xbe8fc7bf	-0.28082082
115	0x3e735d89	0.2376615
116	0xbca579ea	-0.020199735
117	0x3f137659	0.5760246
118	0x00e21667	2.0762859e-38
119	0xbc134ab7	-0.008989981
120	0x3f082fc5	0.5319789
121	0x3c8c14c0	0.017099738
122	0x3eca528d	0.39516106
123	0xbecbdbb2	-0.39816052
124	0x9623af74	-1.3222398e-25
125	0x3e92cc08	0.28671288
126	0x803cdabd	-5.588598e-39
127	0x3c59500c	0.013263714
128	0x3dcc261e	0.09968208
129	0x3dc56f39	0.09640355
130	0x3f64b038	0.8933139
131	0x3e0aba25	0.13547571
132	0x98712105	-3.116519e-24
133	0x008bc961	1.2837375e-38
134	0xadf7f292	-2.8188372e-11
135	0x3cde1750	0.027110726
136	0x3eb7dceb	0.35910735
137	0x3e940ab2	0.2891441
138	0x3e8e0758	0.27739978
139	0x3f462934	0.7740662
140	0xbd97ec91	-0.07418168
141	0x3e68a937	0.227208
142	0x3ee4fe79	0.44725397
143	0x3e3d31b9	0.18475999
144	0x3f8432ab	1.0327963
145	0x3ea600ad	0.3242239
146	0x3ef4f8d2	0.47846085
147	0xbd6e0274	-0.05810781
148	0xbd4bf6d2	-0.049795933
149	0x3e9f54d2	0.311194
150	0x3f004cca	0.5011717
151	0x3eb43d15	0.35202852
152	0x81908934	-5.309412e-38
153	0xbd7ad7d9	-0.061241005
154	0xbd3a6f86	-0.045516513
155	0x3f508f37	0.8146853
156	0xbdc146b0	-0.09437311
157	0x3e89d9b4	0.26923907
158	0xbcc0124f	-0.02344623
159	0x3f1f2aa9	0.6217447
160	0xbdb06349	-0.08612687
161	0x3f3eab62	0.7448026
162	0x3e3eb714	0.18624526
163	0x3ecd093f	0.40046117
164	0x3dc8a8a3	0.0979779
165	0x9b7d1ade	-2.0936351e-22
166	0x3e930985	0.287182
167	0x9330709f	-2.226985e-27
168	0x3e87bdd4	0.26512015
169	0xbd21bf56	-0.039489113
170	0x3e2b7cfa	0.16746894
171	0x3ee39930	0.4445281
172	0xbccf9775	-0.025340775
173	0xbe0aa957	-0.1354116
174	0xbc366397	-0.0111321425
175	0xbd8635a7	-0.06553202
176	0x001291dd	1.705365e-39
177	0x3f1c5ccc	0.61079097
178	0xbd814ab6	-0.06313078
179	0x3ecbd679	0.39812067
180	0x3e0cc8ad	0.13748427
181	0x3f35f641	0.7107888
182	0x3d028295	0.031862814
183	0x3e93d8a8	0.28876233
184	0x3f064e90	0.52463627
185	0x3e40c905	0.18826683
186	0x3dd6c176	0.104861185
187	0xbd5e7a28	-0.054315716
188	0xbda22019	-0.079162784
189	0x3e09224c	0.1339199
190	0x3c7be104	0.015373472
191	0x00a58ce2	1.5203396e-38
192	0x3d417ffb	0.047241192
193	0x3f7abd51	0.97945124
194	0xbe4a3e98	-0.1975044
195	0x3e4f4a3a	0.20243159
196	0xbd972a9b	-0.07381173
197	0xbd6f24d0	-0.058384717
198	0xbe412d86	-0.18865022
199	0x3eca3a90	0.39497805
200	0x3e0a6753	0.13515978
201	0x3e0d66ea	0.1380879
202	0x00b697d4	1.6768526e-38
203	0x3e1cdd53	0.15318803
204	0x3f4de51d	0.80427724
205	0x02f35196	3.575247e-37
206	0x3f28186e	0.65662277
207	0xbdde8ebc	-0.10867068
208	0xbdc6f355	-0.09714381
209	0x3f002b58	0.5006614
210	0x3ee5095a	0.44733697
211	0x3f1f4686	0.62216985
212	0x3ecfae56	0.40562695
213	0x3d11f2b9	0.03563187
214	0x3e407f1a	0.18798485
215	0xbcfdd2d5	-0.030984322
216	0x01048a05	2.4343595e-38
217	0x3f62acab	0.8854472
218	0x3e979374	0.29604685
219	0xbe369aee	-0.17832538
220	0x3ecd17bf	0.4005718
221	0x8119f6c3	-2.8278705e-38
222	0x80996f78	-1.4090818e-38
223	0x3e34335f	0.17597722
224	0xbd8443ff	-0.06458282
225	0x3e7d2d74	0.2472437
226	0x3e0673d6	0.13130125
227	0x3fb8d05c	1.4438586
228	0x3e0ed502	0.13948444
229	0x01da5645	8.0204343e-38
230	0x3dcc873f	0.09986734
231	0xbc5a05b9	-0.013307028
232	0x3d0a1a67	0.033716585
233	0xbe4eb9db	-0.20188086
234	0x00d1bac8	1.9260623e-38
235	0xbe6d28ac	-0.23160046
236	0xbd9b6999	-0.075885005
237	0xbf06d46d	-0.52667886
238	0x3d87121a	0.065952495
239	0x3ee33727	0.44378015
240	0xbeb0dd07	-0.3454363
241	0x0095784c	1.3726643e-38
242	0xbf8b36ca	-1.0876095
243	0x3e0419ab	0.12900417
244	0x3f245dcc	0.6420562
245	0xbe012554	-0.12611896
246	0x3e995210	0.2994542
247	0xb619a35f	-2.289387e-06
248	0xbc24b225	-0.010052239
249	0x00f0ac9b	2.2102438e-38
250	0xbe21b418	-0.15791357
251	0xbd828dfe	-0.06374739

weight f4 [2, 252]
0	0xbd0e65ff	-0.03476524
1	0x3f2a893d	0.6661566
2	0xbfd19cb8	-1.6375952
3	0xbf3b338b	-0.73125523
4	0x3a651c44	0.00087398686
5	0xbf1b9c9c	-0.6078584
6	0x3f15667c	0.58359504
7	0x3ebe3a7a	0.3715399
8	0x3ee396e5	0.4445106
9	0x395dffa9	0.00021171443
10	0xbf01b5e3	-0.5066816
11	0xbeabd0d5	-0.33557764
12	0x3b187874	0.0023265155
13	0x3eab3996	0.33442372
14	0xbda49fc3	-0.08038285
15	0x3fa0a298	1.254962
16	0x3eb02141	0.3440037
17	0xbed72659	-0.42021444
18	0x3903accf	0.0001255751
19	0xbe63e79d	-0.22256322
20	0x3f8f94ff	1.1217345
21	0x3d403323	0.046923768
22	0x4019b45c	2.4016333
23	0xbea33455	-0.31875864
24	0xbe862605	-0.26200882
25	0x3f06ed03	0.527054
26	0xbf16f237	-0.5896334
27	0xc03257db	-2.7866123
28	0xbee277bf	-0.44231984
29	0x3f1ef624	0.6209433
30	0xbecc58d1	-0.39911512
31	0xbb818652	-0.00395278
32	0x3f00a5f0	0.502532
33	0xbf3e10f6	-0.7424463
34	0x3e5e8914	0.21731979
35	0x3f813070	1.0092907
36	0x3f452aee	0.7701863
37	0x3f150e94	0.5822537
38	0xbf10e6e2	-0.566023
39	0x3f189f89	0.5961843
40	0xbdb1ce69	-0.08681948
41	0x406236a7	3.5345857
42	0x3f2f7fdd	0.6855448
43	0xbf0ebcdf	-0.55756944
44	0xbed79d74	-0.42112315
45	0x3fd08058	1.6289167
46	0x0101e0ed	2.3854934e-38
47	0xbaaa48ec	-0.0012991703
48	0xbefa1a8e	-0.48848385
49	0x3f812e4b	1.0092252
50	0x404a7768	3.163538
51	0xbf461b3c	-0.77385306
52	0x3e77ff6e	0.24218532
53	0x3f4dcfdd	0.803953
54	0x3e480160	0.19531775
55	0x3f5787ae	0.84191406
56	0x3ce5134c	0.027963303
57	0x2cf759c1	7.030127e-12
58	0x3adb4ebe	0.0016731841
59	0x3f747b76	0.95500886
60	0x3c850a40	0.01624024
61	0xbfc2d46a	-1.5221074
62	0x3f4246e8	0.75889444
63	0xbe5f169f	-0.21785973
64	0xbf7fa020	-0.99853706
65	0xbf78a015	-0.97119266
66	0xbfaf1e5d	-1.3681141
67	0xbf178929	-0.59193665
68	0x3f80e9b7	1.0071324
69	0x3fa8c26a	1.318433
70	0xbde18e67	-0.11013489
71	0x3f6b7790	0.9197931
72	0xbfbf0add	-1.492519
73	0x3fcd4d82	1.6039279
74	0x3f37148b	0.7151572
75	0xc0446e16	-3.069219
76	0xbfab1b50	-1.336771
77	0x3e33d925	0.17563303
78	0x3d7f8f09	0.06239227
79	0xbffa1ecc	-1.9540648
80	0x3e200752	0.15627792
81	0x3b45f594	0.003020619
82	0x3f86d99f	1.0535163
83	0x3d9419e0	0.07231498
84	0x3f0cb282	0.5495988
85	0xbfa4b58f	-1.2867907
86	0x3e6fdad9	0.23423328
87	0x3de74be4	0.11293772
88	0xbf231472	-0.6370307
89	0x3c6c868a	0.0144363735
90	0xbf80ece3	-1.0072292
91	0x3f324cbf	0.69648355
92	0xbf2e3660	-0.6805172
93	0x3f07e7c8	0.53088045
94	0xbfc92454	-1.5714211
95	0x3fa001ad	1.2500511
96	0xbf5fdf56	-0.8745016
97	0x010459c6	2.430898e-38
98	0x3e9d8ea4	0.3077289
99	0x3f99d592	1.2018301
100	0x3f278192	0.65432084
101	0x3865e774	5.4813412e-05
102	0x3e36c6bd	0.1784925
103	0x00f75f06	2.2717456e-38
104	0x3f268a85	0.65055114
105	0xc0037160	-2.0537949
106	0xbf02c7b6	-0.51085985
107	0x3ec00ec5	0.37511268
108	0x3fa6c24b	1.3028044
109	0xbf0f4428	-0.55963373
110	0xbfd954b4	-1.6978974
111	0xbf47a30b	-0.7798316
112	0x3eaa6674	0.3328129
113	0xbe986e65	-0.29771724
114	0x3e3aed2e	0.1825454
115	0xbec7b798	-0.39007258
116	0xbf889227	-1.0669602
117	0xbebea779	-0.37237146
118	0xb8fb7ac9	-0.00011991483
119	0x3fcb5ebb	1.5888284
120	0xbf15efdd	-0.5856913
121	0x3e0174e0	0.1264224
122	0x3ecea243	0.4035817
123	0x3e18853a	0.14894572
124	0xbaade3bd	-0.0013266724
125	0x3f0b980a	0.5452887
126	0xbb019cda	-0.0019777329
127	0xc0075c77	-2.1150186
128	0x3e307c32	0.17234877
129	0xbe8578aa	-0.26068622
130	0xbf1f5bd0	-0.6224947
131	0x3e643c8c	0.22288722
132	0xb9cecad5	-0.00039442503
133	0x3b248274	0.002510217
134	0xbb1f5374	-0.0024311217
135	0xbf114e4c	-0.56760097
136	0xbf4e5849	-0.8060346
137	0xbf878917	-1.0588712
138	0x3e206367	0.15662919
139	0x3fbdb5f1	1.4821149
140	0x3f84088f	1.0315112
141	0xbe946434	-0.289827
142	0xbfd58a93	-1.6682914
143	0xbf3a6370	-0.7280798
144	0xbee9f796	-0.45696706
145	0xbe827e27	-0.25486872
146	0x3f94523a	1.1587594
147	0xc01e3d9d	-2.4725106
148	0x3f6424ac	0.89118457
149	0xbf4e9e3c	-0.80710196
150	0x3f1c96e7	0.6116776
151	0x3e8e81ca	0.27833396
152	0x3b07a3e5	0.0020697054
153	0xbd8cc21f	-0.06872963
154	0x3f1c644c	0.6109054
155	0x3f8f2bf4	1.1185288
156	0x3f9c4da6	1.2211196
157	0x3e830b32	0.2559448
158	0xc01dd1e3	-2.4659355
159	0xbfc9fa94	-1.5779595
160	0x3d87f04e	0.06637631
161	0xbf1a8fa4	-0.6037543
162	0xbf98fd29	-1.1952258
163	0x4011f32a	2.2804666
164	0xbfa24271	-1.2676526
165	0xb4a08115	-2.9896242e-07
166	0x3ef90f80	0.48644638
167	0xb9cd0ce2	-0.00039110245
168	0x3e65a7b6	0.22427258
169	0x3fe0c2be	1.7559431
170	0x3f1127d1	0.5670138
171	0xbf2337ff	-0.6375732
172	0x3f4e8573	0.8067238
173	0x3f7a8a03	0.9786684
174	0x3fb46323	1.4092754
175	0x3f126637	0.5718722
176	0x391d6dc0	0.00015013572
177	0xbeb4b27a	-0.35292417
178	0xbd927672	-0.07151498
179	0x3e8d5ebf	0.27611348
180	0xbe77aa31	-0.24186017
181	0xbfb1b335	-1.3882815
182	0xc056dd22	-3.3572469
183	0xbe9841e1	-0.29737762
184	0xbeac83fc	-0.33694446
185	0xbb295cb2	-0.0025842604
186	0xbd998186	-0.07495408
187	0xbd4f964b	-0.05068044
188	0x3f5b4f75	0.85668117
189	0x3f8d0ad4	1.101893
190	0x3fccebf1	1.6009504
191	0xb9f8118a	-0.00047315314
192	0xbe0fbd18	-0.14036977
193	0x3f9331bb	1.1499552
194	0x3e5436b9	0.20724
195	0xc001bcc6	-2.0271468
196	0xbdc70b75	-0.09718982
197	0xbe7dc139	-0.2478074
198	0xbf0177f1	-0.5057364
199	0x3fa09a85	1.2547156
200	0xbe495a6d	-0.19663401
201	0xbb86f890	-0.0041189864
202	0x38589a2b	5.1641993e-05
203	0x3f936d7c	1.1517787
204	0x3f746539	0.95466954
205	0x39d6ca35	0.00040967917
206	0x3fe4f5b8	1.7887487
207	0x3f8db1e0	1.1069908
208	0x3faf70f5	1.3706347
209	0x3f150a86	0.5821918
210	0xbeac8805	-0.33697525
211	0x3f0d9660	0.5530758
212	0x3faf9330	1.3716793
213	0xbd876eb5	-0.066129126
214	0xbed86447	-0.42264006
215	0xbec641f0	-0.3872218
216	0xb255d9bf	-1.24477415e-08
217	0x3f549b2b	0.8304927
218	0x3f0bb904	0.54579186
219	0xbf7bb044	-0.98315835
220	0x3fcfb6fa	1.6227715
221	0x3a501903	0.00079382973
222	0x39db11bb	0.00041784145
223	0x3fb081f8	1.3789663
224	0xbe1346f7	-0.1438254
225	0xbd83fbcb	-0.0644451
226	0x3fdf204a	1.7431729
227	0xbf6d7f7e	-0.9277266
228	0xbe0ffd4f	-0.14061473
229	0xb8d75ab0	-0.00010268891
230	0xbe17d0a8	-0.1482569
231	0x3fd2cea7	1.6469315
232	0xbfc89343	-1.5669941
233	0xbf3dd476	-0.74152315
234	0xba5d664b	-0.0008445724
235	0xbdb5a03f	-0.08868455
236	0x3f8b2087	1.0869302
237	0xbe31aace	-0.17350313
238	0xbfb90103	-1.4453434
239	0xbf191536	-0.5979799
240	0xbe5de48d	-0.21669216
241	0xb8e94161	-0.000111224836
242	0xbeba8537	-0.3642976
243	0x3e55a54e	0.2086384
244	0x3fbec0e8	1.490262
245	0x3f666abb	0.9000661
246	0x4011e52a	2.279612
247	0xbb4405ee	-0.002991076
248	0x3de9af3c	0.114103764
249	0x38d08d06	9.9444806e-05
250	0xbd95cc30	-0.07314336
251	0x3f9b44b5	1.2130343
252	0x4019b512	2.4016767
253	0x3f508c96	0.8146452
254	0xc089d6fe	-4.307494
255	0x40081fae	2.1269336

bias f4 [2]
0	0x3da5e98a	0.08101185
1	0xbe087045	-0.13324077
